model/model.pth (torch, 16787 bytes, 4 tensors)

linear1.weight f4 [256, 11]
000000 70 51 76 bd 40 39 64 3d 70 73 14 3d be 33 cf bd
       -0.06013626 0.05571866 0.036242902 -0.10117291
000010 2e d3 ea 3d 64 4f 8d bd e9 e4 88 be b9 ac 20 be
       0.114660606 -0.06899908 -0.26737145 -0.15690888
000020 22 32 4b be 06 73 4c be 59 30 07 bd 01 9d 18 3e
       -0.19843343 -0.19965753 -0.033005092 0.14903642
000030 9f 35 26 3d 7c aa b4 bd a6 e9 88 3e 49 80 2e 3d
       0.04057848 -0.0882158 0.2674076 0.04260281
000040 ee ee 3d 3d ad 21 e6 3d 16 b1 86 3b 67 67 a2 bd
       0.04637044 0.11236892 0.0041104658 -0.07929879
000050 67 c6 92 3d 2c a9 24 be 5e b8 07 3e 34 36 66 be
       0.071667485 -0.16080159 0.13253924 -0.22481614
000060 c4 ea 98 3e 63 e9 b2 3d ad f5 15 3e 90 9a 97 3d
       0.29866612 0.08735921 0.14644499 0.07402527
000070 cb d6 08 3e 3b 48 52 3e 2b 26 2f 3e b8 8b 6b 3e
       0.13363187 0.20535366 0.17104404 0.23002517
000080 be 73 06 be 8f a4 c7 3d 06 f8 c3 bd 3b df 0c 3d
       -0.1313009 0.09748184 -0.09568791 0.034392577
000090 f5 f3 5b be b1 b5 fe 3d bd b4 31 3e 09 12 4d 3e
       -0.21479781 0.12436999 0.17354102 0.20026411
0000a0 07 71 82 3e 5d a1 75 3e 4d 19 63 3e a5 49 2a be
       0.25476858 0.23987336 0.2217762 -0.16629656
0000b0 4a ee 42 bd 56 6b 5b 3e ef ad 80 3e bf 3e 94 bc
       -0.04759053 0.21427664 0.251327 -0.018096326
0000c0 a4 bb 70 be 1a 50 52 be 8c f5 25 bc 9a 70 82 be
       -0.23509079 -0.20538369 -0.010129344 -0.25476533
0000d0 bd 6d 87 be 0b 13 a1 3e d7 99 7f 3e b5 24 0a 3d
       -0.2645091 0.3145984 0.24961029 0.033726413
0000e0 cd 37 ab bd 79 4f 16 be 36 ea 7f 3d e1 23 3e 3e
       -0.083602525 -0.14678754 0.06247922 0.18568374
0000f0 a1 bb 80 3c 29 a6 83 be e9 c0 36 3e 46 78 8f 3e
       0.015714468 -0.25712708 0.17847027 0.2802145
000100 b0 9c 1e be a3 fb 0e be a4 37 26 bd c7 d7 12 3e
       -0.15489459 -0.1396318 -0.040580407 0.14340125
000110 9a a8 3c be 12 88 0e 3c ef c0 7f be 28 6b 89 3e
       -0.18423691 0.008699434 -0.24975942 0.26839566
000120 f3 56 e0 3b 9d 3e 36 be 0a d8 28 be 36 75 3a 3d
       0.0068463027 -0.17797323 -0.16488662 0.045521937
000130 ce 2f 45 3d 54 63 2b be e1 65 28 be 1e c7 82 bd
       0.048141293 -0.1673711 -0.16445114 -0.06385635
000140 68 f3 aa 3b 83 5e 86 be 68 d9 91 be 76 b3 16 be
       0.0052170046 -0.26243982 -0.2848618 -0.14716896
000150 af c8 56 3d 8b a7 36 3e 36 5a a4 3e b5 22 76 3e
       0.05243748 0.1783735 0.32100075 0.24036677
000160 7e a9 25 be de 84 ea bd 60 20 47 3d e8 c8 b6 bd
       -0.16177937 -0.11451124 0.04861486 -0.089250386
000170 de b9 45 be 80 38 f9 bd 20 9d 95 3e d8 42 65 be
       -0.19309184 -0.1216898 0.2922144 -0.2238878
000180 25 60 3f bd 14 6f 98 be 18 d9 99 be b6 4e 3b 3c
       -0.04672255 -0.29772246 -0.30048442 0.01143234
000190 a8 30 65 be 98 6f 00 bd 06 08 f5 bd 53 0a 11 3c
       -0.22381842 -0.031356424 -0.11964421 0.008852559
0001a0 9c 00 6c 3e 29 c1 67 3e 69 a5 22 3e 35 44 f3 bc
       0.23047107 0.22632279 0.15883411 -0.02969561
0001b0 c5 1b 91 be ca 95 97 be c7 08 a0 3e 62 1a 55 bd
       -0.283415 -0.29606467 0.31256697 -0.052027114
0001c0 ea b7 85 3e 31 ce 52 be 07 51 db bd 90 b9 05 bd
       0.26116878 -0.20586468 -0.10708814 -0.03264767
0001d0 ee 57 5a bc db bb a0 3e b9 18 7d bd b0 f1 e0 bd
       -0.013326628 0.31393322 -0.061791155 -0.10983598
0001e0 e6 01 33 3e 37 a3 28 be b9 ae fc 3d 9a d8 a6 bd
       0.17481193 -0.16468512 0.12338013 -0.08146782
0001f0 67 ef 21 3e 84 26 e0 3d 91 37 dc 3d 3a e3 3b 3d
       0.15813981 0.10944846 0.10752786 0.045870997
000200 24 94 89 bd e2 1b ad 3d 0d 8a a0 be b0 31 86 3e
       -0.06717709 0.08452584 -0.31355324 0.26209784
000210 ef 8c 77 3e 7f 06 fb bd e7 f5 ca 3d 11 60 51 be
       0.24174856 -0.122570984 0.099101834 -0.20446803
000220 66 59 cd 3c 12 67 84 3e 6a 3a 8a be d8 3f 57 be
       0.025067043 0.25859886 -0.2699769 -0.21020448
000230 e8 23 96 3e 72 2b 2f 3e 94 bb 50 bd a2 cb 43 bd
       0.2932427 0.17106417 -0.05096014 -0.04780162
000240 b3 27 6d 3e 8b f7 97 3e a0 16 3e 3e 14 19 96 be
       0.23159675 0.29681048 0.18563318 -0.29316008
000250 3c 6d 03 be d8 c8 18 bc 44 e3 86 be 87 67 c1 bd
       -0.12834638 -0.009325229 -0.26345265 -0.094435744
000260 18 63 16 be e8 de 9c 3e ab 99 87 3b ba b3 09 be
       -0.14686239 0.30638814 0.0041381917 -0.13447466
000270 68 6f 2d bc 35 67 73 3e 63 02 6c 3d 64 2d 9c 3e
       -0.010585643 0.23769839 0.057619464 0.3050338
000280 9f 63 dd bd 86 5b bd 3d fe 7c 21 3e 0c 11 44 bc
       -0.10810017 0.09245972 0.15770337 -0.011966955
000290 2e 2b 6f bd f6 72 03 3e b8 71 1e 3e 30 df a2 3d
       -0.05839079 0.12836823 0.15473068 0.07952726
0002a0 00 f4 98 3b 20 16 c8 bd cf dc e1 3d 2c d7 d4 bd
       0.004667759 -0.09769845 0.11028444 -0.10392603
0002b0 e4 1d 35 3e 02 7e 3c be 90 e0 6a be 97 b6 0d be
       0.17687184 -0.18407443 -0.22937226 -0.13839184
0002c0 82 54 05 be 89 e5 48 be 88 73 72 be 10 c8 6e be
       -0.13020518 -0.1961881 -0.23676884 -0.23318505
0002d0 89 e0 1a be f4 ee 56 bd bf d5 58 be 4c 6d 84 3d
       -0.15124716 -0.052473977 -0.21175288 0.06466159
0002e0 93 af 7d be a0 9b 1f 3c a0 c7 a1 3d 54 15 9d 3d
       -0.24774007 0.009741694 0.078994036 0.07670084
0002f0 06 cc 07 3d 40 c6 43 3c ca 4a 84 bd d8 3a 06 3d
       0.033153556 0.011949122 -0.064595774 0.03277096
000300 96 0f 0f be 36 6f 57 3e cc 31 0e be f0 1f fc bb
       -0.1397079 0.21038517 -0.13886184 -0.007694237
000310 15 5c 98 3d 68 c3 95 3d 62 1b 8d 3c eb 06 d2 bc
       0.07439438 0.073126614 0.017224971 -0.025638064
000320 e1 38 56 bd 3b 51 37 be 48 76 80 be fe 5f a0 3e
       -0.052300338 -0.1790208 -0.2509024 0.31323236
000330 df 55 12 3e 75 0e 74 bd 9d 4a 0a 3e a2 1d b2 3d
       0.1429057 -0.0595841 0.13505025 0.08697058
000340 9c 23 71 3e f1 b0 00 be 86 7d 6a be bd 9e 66 be
       0.2354874 -0.12567498 -0.22899446 -0.22521491
000350 25 16 57 be 20 e5 91 be f0 83 3a 3e d1 07 ce bc
       -0.21004541 -0.2849512 0.18214393 -0.025150212
000360 9a a8 0d be bc b3 72 3e 66 91 8a be 02 31 6b be
       -0.13833848 0.23701376 -0.27064055 -0.22967914
000370 3a 38 83 be 76 a0 26 3e b3 dd 6c be 08 51 76 bd
       -0.25628835 0.16272148 -0.23131447 -0.06013587
000380 14 49 0b be 06 f7 27 3d b9 af 93 3e 0d 16 3c 3e
       -0.13602096 0.041007064 0.28845003 0.18367787
000390 4a 19 d1 3c 3e d0 fa 3b 4d 29 11 be 2e 62 04 3e
       0.025524754 0.007654219 -0.14175911 0.12928078
0003a0 3e 81 4a 3e 8d b9 81 be 0f c7 87 3e 11 d8 81 3e
       0.19775864 -0.25336877 0.26519057 0.25360158
0003b0 d3 60 15 3e cb c3 0c be f4 4f 73 3e 87 1f d1 3d
       0.14587717 -0.13746564 0.23760968 0.102110915
0003c0 a3 e5 19 be 53 fc a1 3d 69 60 88 3e a8 de 3a be
       -0.15029006 0.07909455 0.26636055 -0.18248999
0003d0 87 16 90 be 22 52 42 3e 8c 36 25 3e 29 e6 80 3e
       -0.28142187 0.18976644 0.16134089 0.25175598
0003e0 0a 09 74 3e 71 56 11 be d8 57 65 be 29 23 f0 3c
       0.23831573 -0.14193131 -0.22396791 0.02931364
0003f0 cb 33 4d 3d 86 46 ad 3d 06 40 e5 bc 49 1e f5 3d
       0.05009822 0.08460717 -0.02798463 0.11968667

linear1.bias f4 [256]
000000 58 c9 b7 bd 71 01 84 3e 51 8f bc bd 3a c0 dc 3d
       -0.0897395 0.2578235 -0.09207023 0.10778852
000010 22 e8 d7 ba 2c f5 e5 bd a8 e6 11 3d a7 f2 2e 3d
       -0.0016472379 -0.112284034 0.03562036 0.04271188
000020 67 50 16 be 41 a7 0c 3e 03 d9 87 3d 8d 89 a5 3d
       -0.14679109 0.13735677 0.066331886 0.08082876
000030 18 31 4e 3d 30 2d 7e 3e 3d 8d 9e 3d da dd aa be
       0.05033979 0.24821925 0.07741783 -0.33372384
000040 42 04 7d be 23 51 97 be 95 fd 52 3e 9d e9 35 3e
       -0.24708655 -0.2955409 0.20604546 0.17764898
000050 8b c3 e4 bd 61 76 5b be 70 d4 24 3e ae 5c 06 3e
       -0.11170109 -0.21431877 0.16096663 0.13121292
000060 70 b2 a2 be 1c 09 de 3c bd 33 05 3d 5f 4a 8a bd
       -0.31776762 0.027103953 0.032520045 -0.067524664
000070 86 5b 8e be b6 2a 36 be e6 83 81 be ef 4f 14 be
       -0.27804202 -0.1778973 -0.25295943 -0.14483617
000080 8d 80 ca bd dc 93 8d bd 63 7d 11 3e 95 c6 3b 3e
       -0.098878 -0.069129676 0.14207987 0.18337472
000090 6f cd 8b be ef 42 36 be cc df 5d 3d 64 fb f3 ba
       -0.2730517 -0.1779897 0.054168507 -0.0018614349
0000a0 52 a8 67 3e 9d 5d cb 3d b4 2b dc bd 96 40 35 be
       0.22622803 0.09929965 -0.10750523 -0.17700419
0000b0 6b 6e 95 3c 05 3c 32 be 66 11 59 3d 4d bb 9a bd
       0.018241128 -0.17405708 0.052995108 -0.07555256
0000c0 2d 63 89 3e e1 63 8d be ef 91 41 3e 10 4e fe 3d
       0.26833478 -0.27615264 0.18903325 0.12417233
0000d0 50 66 6b be 68 72 90 3e 38 3c 8b bd 70 df 39 be
       -0.22988248 0.28212285 -0.06798595 -0.18151641
0000e0 14 14 4d bd cc c8 96 be 18 9c f2 3c 6a e8 61 be
       -0.050067976 -0.2945007 0.029615447 -0.22061315
0000f0 d0 f6 83 3e 8f 67 3c be b4 88 3b 3e f3 1c 38 be
       0.2577424 -0.1839888 0.18313867 -0.17979793
000100 a6 e8 8d 3d 9c 40 a7 3e 49 08 de 3c 5a 50 8e be
       0.0692914 0.3266648 0.02710356 -0.27795678
000110 78 f9 bd bd 6d 18 06 bd 14 a9 51 bd 8b 57 50 3e
       -0.09276098 -0.032738138 -0.051186636 0.20345895
000120 26 29 84 3c f7 20 b9 3d 79 12 8d 3e ea 68 72 be
       0.016132902 0.09039491 0.27553156 -0.23672834
000130 47 78 17 be 15 7d 95 bd ea 56 61 bd 56 bf 2a be
       -0.14791976 -0.07299248 -0.05501453 -0.16674551
000140 ac a8 81 3e 7c c4 87 3e 66 05 48 3e af 35 61 bd
       0.25324 0.26517093 0.1953331 -0.054982837
000150 77 6d 9d 3c 08 19 87 3e 4e 61 f6 3d 89 34 97 be
       0.019217236 0.26386285 0.12030278 -0.2953227
000160 6e 44 84 be bb c6 a1 bc 20 15 7c 3e 58 cd 9b 3d
       -0.25833458 -0.019748082 0.24617434 0.076075256
000170 83 2e 03 3d 0c cf 4d be d0 09 8f be ef 1f 76 3e
       0.03202678 -0.20098513 -0.27937174 0.24035619
000180 b7 e9 2a 3e bc 2b 77 3c 05 be a7 3d 4c 2c 3e bd
       0.16690718 0.015086111 0.0819054 -0.046428964
000190 69 6c 70 3d e1 b7 89 3d 14 d7 95 bd 3e 77 5d be
       0.058697138 0.06724525 -0.073164135 -0.21627519
0001a0 e3 d8 45 be 9c 67 a6 be 2b 5d 4c 3e 75 f5 f0 3d
       -0.19321017 -0.32500923 0.19957416 0.11765567
0001b0 cf c4 2e 3e 26 32 56 bd c1 de 5a 3e 96 b6 54 be
       0.17067264 -0.05229392 0.21374036 -0.20772776
0001c0 b9 db 46 be 32 90 7c 3c af ab 84 be ea 7e 9d 3d
       -0.19419755 0.015415238 -0.25912234 0.076902226
0001d0 ec ac 12 3c 50 99 7d bd 90 21 ba 3c 03 9c 90 3c
       0.008952361 -0.06191379 0.022721082 0.017652517
0001e0 10 84 5f be 7f ce 77 be fc dc 8a ba de 91 5b be
       -0.21827722 -0.24199866 -0.0010594423 -0.21442363
0001f0 76 e3 c5 bd 8a 37 5f be e0 a6 b3 bc d7 d3 42 3d
       -0.09662525 -0.2179853 -0.021930158 0.047565307
000200 62 99 65 3e 34 f8 a1 3e 44 dc 15 bd b4 8f 80 3e
       0.22421792 0.31634676 -0.036587015 0.25109637
000210 35 7c 58 3d f3 22 bc 3d 9b 05 8f bd 02 6b 78 3e
       0.052852828 0.091863535 -0.06983491 0.2425957
000220 60 0d 94 3e d0 56 79 3c c6 c7 c5 bb d5 b5 31 3e
       0.28916454 0.015218452 -0.0060357777 0.1735452
000230 81 32 83 be 2d c8 c2 bd 2f ed 6f be 29 c1 6b 3d
       -0.2562447 -0.09510837 -0.23430322 0.05755726
000240 27 72 0f 3c fb 6f d1 bd 81 24 8b bd b5 00 04 be
       0.008755243 -0.10226437 -0.06794072 -0.12890895
000250 27 5e a8 3e b7 21 bb 3d 89 b8 81 3e 98 10 f5 3d
       0.32884333 0.0913729 0.25336102 0.11966056
000260 66 f5 06 3e 11 be a5 bd 54 79 a8 3c 94 67 8b be
       0.1317955 -0.08092893 0.020565666 -0.2722746
000270 d0 0d 0d 3c f3 da 0e 3d 8b a8 8c 3b c6 3f fb 3d
       0.00860925 0.034876775 0.004292553 0.12268023
000280 9f 52 99 3e c6 fe e8 3d 7c 36 90 be ac c1 2a 3e
       0.29945847 0.11376719 -0.28166568 0.16675442
000290 ec 08 bb bd 99 83 2f be ca 40 53 3e a5 8b 99 be
       -0.09132561 -0.17140044 0.20630184 -0.29989353
0002a0 4e 39 37 be ca 84 c7 bd bf 4b 84 3d a6 a1 34 3e
       -0.17892954 -0.097421244 0.0645976 0.17639789
0002b0 aa 23 de bd 10 d7 49 bd 2b 26 95 bc 97 dd 09 3e
       -0.10846646 -0.049277365 -0.018206676 0.13463436
0002c0 11 b2 a9 3d c9 a6 3e be f7 62 25 be 06 26 df bd
       0.082859166 -0.18618311 -0.16151033 -0.10895924
0002d0 36 77 ea 3d b6 6d 1a be a7 79 4e be ae 3b 49 3e
       0.11448519 -0.15080914 -0.20163594 0.19651672
0002e0 2f ce a6 3d cd c3 23 bd 7e 69 db 3d 7b f9 4b be
       0.08144795 -0.039981652 0.107134804 -0.19919388
0002f0 c3 9d fd bd f4 90 27 be 04 18 c6 bd 39 4d 50 be
       -0.12383606 -0.16363889 -0.09672549 -0.20341958
000300 98 b0 be bd f7 67 94 bd 88 1e bc bd 52 be 80 3e
       -0.09311026 -0.07246392 -0.09185511 0.25145203
000310 d3 73 a5 be 41 c8 cf 3c ee 77 11 3d 4e eb 25 3e
       -0.3231493 0.025364043 0.035514764 0.16203043
000320 0e 11 50 3e ce 01 01 bd dd 41 ca bc ed af 3f 3e
       0.20319006 -0.03149586 -0.02468961 0.18719454
000330 ab 38 7a be 15 ad 7a 3e 77 13 70 be e5 24 ba 3d
       -0.2443568 0.24480088 -0.23444925 0.09089068
000340 b1 e1 24 3e 9d 93 79 3d 35 30 93 be 42 62 6e 3d
       0.1610172 0.06093179 -0.28747717 0.058199175
000350 ab 11 85 3e 35 5c 74 bc 18 1c 85 be 83 ff 15 be
       0.25990042 -0.014914562 -0.25997996 -0.14648251
000360 c0 d9 5b bd 4e 43 73 3e e1 29 31 be dd 5e c9 bd
       -0.05367446 0.23756143 -0.17301132 -0.09832547
000370 12 c9 de bd 97 12 2a be 6d 10 16 3e 1c 13 67 bd
       -0.10878195 -0.16608654 0.14654703 -0.05641471
000380 37 fb ec 3d 04 4e 17 be eb 53 de bd 05 8b 90 be
       0.11571353 -0.14775854 -0.1085585 -0.28231063
000390 e6 cd 82 3e 5b ad 03 3e 2f f5 fb bd 5f 7b 63 bd
       0.25547713 0.12859099 -0.123026244 -0.055537578
0003a0 be 55 63 be 6f 7e 97 3d 87 50 3d be 33 15 06 3d
       -0.22200677 0.07397162 -0.1848775 0.03273506
0003b0 d0 7e 3f bd 7d 25 cf bd b0 ec 98 bc 8c 11 1c 3e
       -0.046751797 -0.10114572 -0.018667549 0.15241069
0003c0 c5 84 37 3e 87 48 3c be 78 48 9e 3e 1d 19 87 bd
       0.17921741 -0.18387042 0.30914664 -0.06596587
0003d0 94 2c 25 be 0c 8b 68 ba 92 8f 2c be 1e 59 93 bd
       -0.16130286 -0.0008870817 -0.16851643 -0.07194732
0003e0 34 8d 7a 3e 96 00 c3 3d d8 df 4e 3e 3a 3d 2c be
       0.24467927 0.09521596 0.20202577 -0.16820231
0003f0 2c aa 69 3e 2c d5 df bd f4 eb 1a be 13 5b 8b be
       0.22818822 -0.10929331 -0.15129071 -0.27217922

linear2.weight f4 [3, 256]
000000 9a 97 37 3d 63 6b 67 bd 2e 4e 48 bd cd 54 71 bb
       0.044822313 -0.056498896 -0.048902683 -0.0036824227
000010 1e d9 ba bc 3e 4c 12 bd ae 6f db 3c 26 2c 48 bb
       -0.022808608 -0.03571724 0.026786651 -0.0030543893
000020 12 36 f4 bc 5c b3 03 3d 46 04 3d bd 09 f3 3e bc
       -0.029810939 0.032153472 -0.046146654 -0.011654624
000030 8c 57 0d bd 0c 16 37 bd 05 7a dc bb 9c 9e 9f 3c
       -0.03450732 -0.04469876 -0.006728413 0.01948481
000040 d0 cb b0 3b 15 11 fb 3c 28 e3 41 bd a7 2e 55 3d
       0.00539539 0.030647794 -0.047335774 0.052046444
000050 d0 ed b3 b8 07 69 37 bd 37 dd 61 bd 47 38 0a 3d
       -8.579681e-05 -0.044777896 -0.055142608 0.033745077
000060 73 45 7d 3c 99 72 ad bd b3 a6 15 3d ee 12 60 3c
       0.0154584525 -0.084691234 0.03653593 0.013676388
000070 44 5b 33 bd b6 db 18 3d 29 1d ac bc 0a c3 49 bc
       -0.04378821 0.037318908 -0.021009998 -0.012314567
000080 46 76 28 bd fb c9 8b 3d d6 e6 5f 3d bf 67 e5 3c
       -0.04112842 0.06825634 0.0546635 0.028003572
000090 80 fb 3f 3c cb 39 93 bd f0 a9 f9 bb 01 2f 96 3c
       0.011717677 -0.071887575 -0.007619135 0.01833296
0000a0 09 d5 d4 bc 49 c5 93 3d d4 97 a4 bc 35 56 64 3d
       -0.02598049 0.072153635 -0.020091929 0.055746276
0000b0 7b 30 8a bd c0 34 a1 3d a1 45 a0 3c ae e7 96 bc
       -0.06747528 0.078713894 0.019564452 -0.01842102
0000c0 05 02 28 3d b9 26 6a 3c ef 4d d8 3c c3 a8 8d 3b
       0.04101755 0.014291459 0.02640435 0.0043230965
0000d0 d8 99 02 3d f8 31 2e 3c 51 24 3b 3d 04 ad 76 3d
       0.031884998 0.010632031 0.04568893 0.060223594
0000e0 2c 1b b9 bb 54 15 3f 3d fb 23 f1 bc fe a6 5b 3d
       -0.005648991 0.0466512 -0.029436102 0.053626053
0000f0 75 0a b0 ba 11 9b 9e bd 6c 1c 30 bd dd 97 23 bd
       -0.0013430851 -0.0774442 -0.042995855 -0.03993975
000100 5d 45 24 bd 08 c3 82 bd 6e 9c 1f 3d 15 c2 20 3d
       -0.040105212 -0.063848555 0.038967542 0.03924759
000110 3b e9 41 bd 9d 61 4b bc 51 1b 0b 3d 9d e2 f0 3c
       -0.047341567 -0.01241341 0.033961598 0.029404933
000120 41 43 04 3d fd 6b bb bc c3 91 ec 3b 20 8f 4c 3a
       0.0322907 -0.022878641 0.0072195246 0.00078033097
000130 d4 f1 cd bc 03 ac 87 bd 08 b3 3e bc d7 36 e3 3c
       -0.025139727 -0.066246055 -0.011639364 0.02773611
000140 33 9e 4e 3d 26 13 93 3d b3 e0 85 3d b4 de 34 3d
       0.05044384 0.07181387 0.065369986 0.0441577
000150 17 f0 1a 3d 82 67 51 bd 20 aa c7 bd f4 a5 89 3c
       0.037826624 -0.051124103 -0.09749246 0.016802765
000160 04 5d 69 bd bf 80 9b bc 44 32 57 bd df e0 01 bd
       -0.056973472 -0.01898229 -0.05253817 -0.031708594
000170 ec 23 70 bd 52 c0 ea bb 34 87 4f bd a3 11 99 bd
       -0.058628008 -0.0071640396 -0.05066605 -0.07474067
000180 29 6a e4 3c 8f 1b 12 bd bc 22 00 3d d0 4a 6f bd
       0.027882652 -0.035670813 0.031283125 -0.058420956
000190 0a aa bf bd a6 78 9c bd d9 67 4c 3d 47 5e e9 3b
       -0.09358604 -0.07640199 0.049903724 0.0071218344
0001a0 61 db a2 bd 71 36 46 3c 7a ff 17 3d f4 a3 7a bd
       -0.079519995 0.012097941 0.037108876 -0.061191514
0001b0 e4 dc 67 3d 1e cb 77 bd ac bf b7 bb f7 f6 05 bd
       0.056607142 -0.060496442 -0.005607566 -0.032706227
0001c0 a6 3d 37 bd 7c eb 46 3c 44 74 ca bc f6 3b 6a bd
       -0.044736527 0.012141105 -0.024713643 -0.05718609
0001d0 0f a1 c6 bd 07 af 9e 3c d7 46 ae bb d6 6a 3b bd
       -0.09698688 0.019370569 -0.0053185034 -0.045756184
0001e0 82 3e 72 ba 6c 80 b2 bd 0b fb 73 bd 34 fc 54 3d
       -0.0009240882 -0.08715901 -0.059565585 0.051998332
0001f0 df b0 55 bc 27 99 85 bd 35 48 bd bc ee f7 95 3d
       -0.013042658 -0.06523352 -0.02310572 0.073226795
000200 2e d9 b8 ba f8 c0 38 3d f2 a8 8d bd 53 ee 04 bd
       -0.001410281 0.045105904 -0.069169894 -0.032453846
000210 2f 21 24 3d 4c 4a 93 bc b3 e6 c8 bc 66 94 fa bc
       0.04007071 -0.017979763 -0.024524068 -0.03058834
000220 94 29 5a bd c9 ce 09 3a 50 31 21 bc df ae 98 3c
       -0.05326231 0.00052569486 -0.009838417 0.018638073
000230 b8 5a 18 3c bb 45 b7 bc be 38 50 bd ea de b9 bd
       0.009298973 -0.022372117 -0.050835364 -0.090757206
000240 4e 51 91 3c 93 d3 47 bd b0 3b 7e bc 4b 70 2e bd
       0.017738964 -0.048785757 -0.01551716 -0.04258756
000250 be 0b 90 bd f3 aa 3e bd 6f f5 06 3c d8 a1 4e bd
       -0.0703349 -0.04654975 0.008237227 -0.050447315
000260 c7 ad c1 bd 96 09 00 bc f6 49 90 bd cc 89 b7 3a
       -0.094569735 -0.007814785 -0.07045357 0.0014002859
000270 03 5a db bc c4 e5 a3 3c f8 4c 3d 3d 46 2a b9 bc
       -0.02677632 0.020007022 0.04621598 -0.022603165
000280 c8 5b e9 bc 49 c7 9a 3d c0 c2 85 3d 31 b1 28 bd
       -0.028486148 0.07557542 0.06531286 -0.041184608
000290 4e ee 62 3c 78 a1 de 3c 35 4a aa 3b 35 29 07 bd
       0.013850762 0.027176604 0.0051968344 -0.032998282
0002a0 ed 77 2f bd bc 39 4f bd 80 2e 01 bd 4c 63 55 bc
       -0.04283898 -0.05059217 -0.031538486 -0.0130241625
0002b0 94 97 88 bd aa a8 00 3d e2 eb 8b bd f3 cc 13 3d
       -0.06669536 0.03141085 -0.068321005 0.036084127
0002c0 f3 71 7c bc df a3 ef 3c 45 78 09 bd 65 e7 a9 bd
       -0.015408027 0.029252945 -0.033561964 -0.08296088
0002d0 ad 48 ae 3b 23 c7 13 bd d8 03 66 bd 6c f7 69 bd
       0.005318722 -0.036078583 -0.05615601 -0.057120726
0002e0 60 82 1d 3c a6 5b db bb e9 90 8e bd ec 25 5f bd
       0.009613603 -0.006694275 -0.06961233 -0.054479524
0002f0 d6 96 8e bb 6c cc 30 3d 69 cb 1f bc ee 54 2e 3d
       -0.004351477 0.043163702 -0.009753087 0.042561464
000300 05 12 27 3d f6 15 9e 3c 7d 54 8d bd f8 f8 0b bd
       0.04078867 0.019297581 -0.069008805 -0.034172982
000310 e7 50 23 3d 83 8e 77 3d 04 6a 62 bd 55 74 2b bd
       0.039872076 0.060438644 -0.055276886 -0.04185899
000320 c0 b5 10 bd df 5a b7 3a 72 9b e6 bc af 7f 7f bd
       -0.03532958 0.0013988874 -0.028150294 -0.062377628
000330 c6 c4 ed bc 36 9a 0a bd f1 69 e3 3c fb 86 8d bc
       -0.029024493 -0.033838473 0.027760478 -0.017276278
000340 12 90 84 3c 74 16 f2 bc 55 7f f5 bb c0 56 01 3c
       0.01618198 -0.029551722 -0.007491986 0.007894218
000350 92 ff 5d 3d a3 9c 9a 3c 73 c7 68 3d d2 7c 19 bd
       0.05419881 0.018873518 0.056830835 -0.037472554
000360 65 88 a4 bd 57 75 e3 bb 77 ad 95 3c 54 eb 80 bd
       -0.08033828 -0.0069414782 0.018271191 -0.06294885
000370 7d 9c de 3a 94 2f ad 3c 6c 30 29 bd 55 12 28 bd
       0.0016983893 0.021140851 -0.041305944 -0.041033108
000380 09 17 ef bc 58 c2 e0 bd c5 6c 5c bd 01 b6 21 3d
       -0.029185789 -0.10974568 -0.05381467 0.039480213
000390 97 09 c2 bc 5f 13 f1 bc 18 25 b5 bd 97 33 b0 bd
       -0.023686213 -0.029428182 -0.08844966 -0.0860359
0003a0 17 ce 36 bd 71 43 bc bc ea 5e 03 bc 24 90 23 bd
       -0.044630136 -0.022981377 -0.008018235 -0.039932385
0003b0 96 ee c4 bc 17 70 a8 bd a0 19 a1 3c 2a 74 8d bd
       -0.024039548 -0.082245044 0.01966554 -0.06906922
0003c0 c6 2a f0 3c 3f 38 7c bb c8 6f 39 bd 94 bd 91 bd
       0.029317271 -0.0038485674 -0.04527262 -0.07116237
0003d0 af 2d 0f bd 16 39 91 bd c6 49 c5 bd 6d 6d 81 ba
       -0.034955677 -0.070909664 -0.09633212 -0.000987453
0003e0 dc a7 77 bd 7d ba 03 3d ab bd a8 bd a6 c3 2b 3d
       -0.060462818 0.03216027 -0.08239301 0.04193463
0003f0 7e 52 9c 3c 87 b8 16 bd 10 a1 d1 bc 4b 25 4e bd
       0.019082304 -0.036797073 -0.025589496 -0.050328534

linear2.bias f4 [3]
000000 7f 7e b1 bd 3e 2c 84 bb 11 b3 ca bc
       -0.08666705 -0.0040335944 -0.024743589
