snake/model/model.pth (torch, 17216 bytes, 4 tensors)

linear1.weight f4 [256, 11]
000000 6c 6d 4f bc 25 b0 83 3e 5e f9 aa 3c 01 e5 b4 3c
       -0.012660366 0.25720325 0.02087086 0.022081854
000010 69 db dd 3e 76 ad 3f be dd a0 a1 be 6e a6 1b be
       0.4333146 -0.18718514 -0.3156804 -0.15200207
000020 08 a7 a8 3e a8 65 72 bd 58 ab f3 be c9 b4 1b 3e
       0.32939935 -0.05917898 -0.47591662 0.15205683
000030 34 a8 a2 3d cc 16 b7 3d 3e 5a dd be 6d 17 25 3e
       0.079422385 0.08939895 -0.43232912 0.16122217
000040 fa 19 95 bd 58 d0 33 3e 17 9e ff 3e 45 72 ae be
       -0.07280345 0.17559946 0.499253 -0.34071556
000050 79 54 ac 3e 0a e3 46 be 2e 17 b4 be 62 0d 0e 3d
       0.33658198 -0.19422546 -0.35173935 0.03468073
000060 01 2a d0 3d e5 51 e7 be 73 ef c1 be b0 b8 bb be
       0.101642616 -0.45179668 -0.37877998 -0.36664343
000070 5a a2 29 3e 01 eb aa be 9f 3e de be 56 8c bf be
       0.16565838 -0.3338242 -0.4340715 -0.37411755
000080 43 86 56 3e f8 72 29 be d1 12 c5 be da e7 81 3e
       0.20949654 -0.16547763 -0.38490918 0.253722
000090 7c 34 28 3c b8 f9 f2 be 85 15 0f 3e 76 00 8a be
       0.0102664195 -0.47456145 0.13973053 -0.26953477
0000a0 3d 4a b6 be a6 d7 94 3e f5 36 6e be e1 39 22 be
       -0.35603514 0.29070777 -0.23263152 -0.15842392
0000b0 bf 7e 9a bd ae 08 97 be 9b d1 c2 3d d1 0f 10 3e
       -0.07543706 -0.2949881 0.09512635 0.14068533
0000c0 e9 1d ed 3c 2f 76 3c 3c 7a c6 d2 3c 33 55 0e 3f
       0.028944926 0.011502787 0.025729407 0.55598754
0000d0 e1 e9 4e be 41 45 cb 3e 23 9b 37 be cc 26 8f 3d
       -0.20206405 0.39701274 -0.17930274 0.06989822
0000e0 b1 30 a5 3e 42 23 8a bd 7f ed 15 3d b0 52 95 be
       0.3226371 -0.06745006 0.036603447 -0.29164648
0000f0 94 67 95 be 39 52 9a 3e 34 94 ae be ae e2 60 be
       -0.29180586 0.30140856 -0.34097445 -0.21961471
000100 bf ca e7 bc ad 0c a8 3e 15 ca 00 3e 87 7e 3d be
       -0.028294919 0.3282217 0.12577088 -0.18505298
000110 3c cd 48 3e 14 fd 8a 3e ea 81 13 bd 18 2d 9a 3c
       0.1960954 0.27146208 -0.036012568 0.01882033
000120 b9 ed 69 3e ce c8 a1 3e 67 0e 17 3f 92 33 d1 3e
       0.2284459 0.31598514 0.5900635 0.40859658
000130 ca 86 e9 3e df 86 84 3e d1 e9 37 bf fd 81 a0 3e
       0.45610648 0.25884148 -0.7184115 0.31349173
000140 78 1d bb 3e e4 4e c7 be 1b 36 d0 3c f2 f6 c1 3e
       0.3654592 -0.38927376 0.025416424 0.37883717
000150 aa 37 c4 be 55 57 f3 3e 76 d3 b8 3d ee 9b 44 be
       -0.38323718 0.47527567 0.09024708 -0.19200107
000160 77 a4 8f be 4a 41 ce bc d2 69 98 3d 3d eb cd 3e
       -0.28055164 -0.025177617 0.074420586 0.40218535
000170 83 af 93 be 37 8d 81 be ba 08 c1 be e6 9f c2 bc
       -0.28844842 -0.2530305 -0.3770197 -0.023757886
000180 e8 be a0 be 13 5b 0f bf 8f 40 10 be fd cf 53 bb
       -0.3139565 -0.55998343 -0.14087127 -0.0032320016
000190 35 e4 89 3d 5f f4 a7 be cd db c0 bd 70 ae e6 be
       0.0673298 -0.32803628 -0.09416924 -0.4505496
0001a0 6f 05 91 3b 28 a9 9c be 88 e2 3c 3e 9c 28 0c 3e
       0.0044256966 -0.30597806 0.1844579 0.13687366
0001b0 fd 45 d7 be 72 76 72 3e e9 07 cc be d2 a0 18 be
       -0.42045584 0.23677996 -0.39849785 -0.14905098
0001c0 81 78 41 3c ad 66 80 3c 17 a4 75 3e 3c e3 8b 3d
       0.0118085155 0.01567396 0.23988377 0.06830451
0001d0 b7 18 27 3e 81 af 6d 3e e6 9f 02 3e c6 86 d0 bd
       0.16318022 0.2321148 0.12756309 -0.10181956
0001e0 d2 d6 3e 3e 1c 0a 88 3e df 43 ba be 12 9f 19 3d
       0.18636635 0.26570213 -0.36379907 0.037505217
0001f0 45 df 16 bd 2b 8d 1a bf 6b af 1f be 76 9d 29 3e
       -0.03683402 -0.60371655 -0.1559426 0.16563973
000200 87 bb f6 3c 01 cf dc 3e 58 26 25 3e 59 ff 99 bd
       0.030118717 0.4312668 0.16127908 -0.07519407
000210 83 e5 27 3d 81 26 93 be 55 87 1b 3f 68 19 6a 3e
       0.040990364 -0.28740314 0.60753375 0.22861254
000220 e2 7e b1 be 44 68 15 3e 24 56 65 3e 8b 66 75 be
       -0.34667116 0.14590555 0.22396141 -0.23964898
000230 a1 a3 39 3e 87 cc 3e be 67 49 cf be 21 cc 2a be
       0.18128826 -0.18632708 -0.4048569 -0.16679431
000240 04 25 bd bb fe ce 99 be e2 1c a8 bd 2c 97 a8 3d
       -0.005772235 -0.30040735 -0.08208634 0.08231959
000250 6a 92 b7 3d 30 eb 28 3e 5b 9a 12 3e cc a2 87 3d
       0.08963473 0.16495967 0.14316694 0.06622848
000260 3a f2 3f be 10 de 0a 3d e9 c0 16 3e 29 1b 64 3e
       -0.18744746 0.03390318 0.14722027 0.22275986
000270 cb 42 ba 3d 64 2b a6 3d ea ca 2b bd 13 16 4a be
       0.09094771 0.08113745 -0.04194156 -0.19734983
000280 a2 44 19 be 16 d3 d0 3e 4e 0e da 3e 29 8a e8 3e
       -0.14967588 0.40786046 0.4258904 0.45417908
000290 10 4c 01 3f 4c 30 ce 3d 9f 60 27 bf 64 45 4b bc
       0.5050669 0.10067806 -0.6538181 -0.012406681
0002a0 8e 03 d2 be 5c 84 3d 3e 54 65 e5 3e d2 8c f4 3d
       -0.41018337 0.18507522 0.4480387 0.11940922
0002b0 fd 81 f7 be 07 f4 9d be ff 52 37 be 35 10 58 bd
       -0.4834136 -0.3085024 -0.17902754 -0.05274983
0002c0 a1 c4 42 3e db fb 24 3f 9d 3d 60 be b4 82 c4 bd
       0.1902032 0.644468 -0.21898504 -0.09595242
0002d0 e4 38 84 be ad 73 e8 bd db cc 9a 3d 1d 62 02 bd
       -0.25824654 -0.113501884 0.07558604 -0.03183185
0002e0 fc 13 2d be d1 66 85 bd f7 05 88 bd 18 da 23 3d
       -0.16902155 -0.06513751 -0.06641763 0.040002912
0002f0 8f ea 72 bc 4c e4 62 3d 2d 20 57 3e 4e ba c3 3d
       -0.014826431 0.055393502 0.21008368 0.09557019
000300 db 4c da be 66 cc 82 3e 00 6d d9 3e d3 b4 82 be
       -0.4263676 0.2554657 0.42465973 -0.25528583
000310 e1 c3 c9 3e 74 8e 6c be 41 12 28 3e 74 a1 92 be
       0.39407256 -0.23101217 0.16413213 -0.28638804
000320 72 e9 9d 3e ff 66 3a 3e 4f 21 c8 3c 1f 5c bc bd
       0.30842167 0.18203352 0.024429945 -0.09197258
000330 b6 b6 bc 3d 81 44 08 be 15 3e 71 bd 9a 22 9c 3d
       0.09214537 -0.13307382 -0.058897097 0.07623787
000340 1a 0c 92 be 70 21 c7 3b ee 4a 29 be 87 dc 95 be
       -0.28524858 0.006076984 -0.1653249 -0.29269812
000350 19 b5 1f be 31 25 e4 3c 16 30 c3 3d 69 eb d6 3d
       -0.15596427 0.027849765 0.09530656 0.1049412
000360 25 c1 fe 3c 89 7d 84 be dc 44 dd bd 0b 7c c3 be
       0.031097958 -0.25877026 -0.108041495 -0.38180575
000370 f9 01 44 be ce 73 08 be 12 a1 b7 3a c8 35 2c 3e
       -0.19141378 -0.13325426 0.0014009795 0.16817391
000380 e0 1e 9d be 62 89 03 3e c5 c3 11 be 94 7f 8a 3c
       -0.30687618 0.12845376 -0.14234836 0.016906537
000390 56 0a ca 3e 64 28 81 bc f1 28 07 bf c4 7a ad bc
       0.3946101 -0.01576633 -0.52796847 -0.021176703
0003a0 9a cf d9 bd 22 30 b5 3d c5 13 f6 be 71 6e 0f 3e
       -0.106353 0.08847071 -0.48061958 0.14006974
0003b0 77 23 38 bc f9 7d c7 be 53 b0 f4 bd 26 40 de be
       -0.011238924 -0.38963297 -0.11947694 -0.43408316
0003c0 34 ec ac be 5c 39 92 3e b2 64 37 be 68 a5 56 bd
       -0.3377396 0.28559387 -0.17909506 -0.052403837
0003d0 bd 34 79 bd 22 1c 6e be e6 75 a9 be f6 6b b2 3e
       -0.06084131 -0.2325292 -0.33097762 0.34847993
0003e0 fb 72 4a 3e c0 10 12 bf 31 30 12 bf 4f 7e 12 be
       0.19770424 -0.5705681 -0.57104784 -0.14305995
0003f0 69 a6 18 ba e7 39 05 3d 7d fb a8 3e af 17 bc bd
       -0.0005823137 0.032525923 0.3300437 -0.09184205

linear1.bias f4 [256]
000000 fe 55 be be 61 c1 a4 bd 8b ec ba 3d a2 e4 92 bd
       -0.37174982 -0.080446966 0.09127148 -0.071725145
000010 ac 5c 10 3e a4 02 65 be 61 dc 99 3e 70 9f 13 be
       0.14097852 -0.22364289 0.30050948 -0.1441629
000020 00 59 53 3e 44 10 0d bd f5 ba 05 3f 91 86 08 bc
       0.2063942 -0.03443934 0.522384 -0.008332864
000030 d7 9e b1 3d c9 79 b1 be 29 bf 1d be b6 cf 74 3e
       0.086728744 -0.34663227 -0.15404953 0.2390736
000040 1e 43 48 be c8 10 47 bd fa c2 91 be 38 9b 14 be
       -0.19556853 -0.04859999 -0.28469068 -0.14512336
000050 cb 58 40 be 85 6d 2a 3e 6c c6 b1 3e 46 a6 c1 3e
       -0.18783872 0.16643341 0.34721696 0.3782217
000060 08 e8 f0 3a 77 a7 7f 3d 22 b7 c1 bc fd 71 f9 3d
       0.0018379698 0.062415566 -0.023646895 0.12179945
000070 ba e1 b0 bd 11 68 02 be 7f 42 44 be aa a9 5d bd
       -0.08636804 -0.1273501 -0.19165991 -0.054116882
000080 79 30 1b be ea 92 55 bc a1 44 75 be 01 d7 f2 3d
       -0.1515521 -0.013035515 -0.23951961 0.11857415
000090 45 0f dc bd 30 d7 24 bd 51 d2 40 3e 0a 02 ac 3c
       -0.107451 -0.04024428 0.1883023 0.020997066
0000a0 d4 15 06 3d 6c 97 27 3e 85 d5 75 be 4e 6b 97 bd
       0.03273566 0.16366357 -0.24007232 -0.073935136
0000b0 62 b4 90 be ab cd 02 be 12 47 79 be de a7 1b be
       -0.2826262 -0.12773769 -0.24343517 -0.15200755
0000c0 bf ab ed 3c 76 00 0e bd 72 1e 70 3d d8 6a 35 3e
       0.029012559 -0.03466841 0.058622785 0.17716539
0000d0 8d dc 27 bc 66 52 d9 bd 7f 8e b1 be bb c7 1f be
       -0.0102454545 -0.106114194 -0.34679028 -0.15603535
0000e0 52 c9 a3 be 18 01 19 bd 06 6d 27 be c3 f8 78 3e
       -0.31989533 -0.03735456 -0.16350183 0.24313645
0000f0 50 fd 75 be 21 23 58 bd b8 db 00 be 1a 4e 8c be
       -0.24022412 -0.052767877 -0.12583816 -0.27403337
000100 8d ad 4e bd f5 a2 89 3b f4 63 89 3d 50 58 b8 bd
       -0.05045848 0.004200334 0.06708518 -0.09001219
000110 3e 57 5e be ca 3d 2c 3d 8e 82 12 3e db 1d 99 be
       -0.21712968 0.042051114 0.14307615 -0.2990559
000120 76 76 97 3d 30 ec 9e be 6f df 47 3e d2 22 18 3d
       0.073956415 -0.31039572 0.19518827 0.037142582
000130 80 19 3a be ad 72 c3 3c 32 55 36 be a9 c0 dc 3d
       -0.1817379 0.023858393 -0.17805937 0.107789345
000140 07 37 b9 bd 7f b4 e0 3e 2e 25 06 3d d4 3b 72 bb
       -0.09043699 0.43887708 0.0327503 -0.003696193
000150 13 0a 27 3e 8c fd 36 be 07 7d ac bd 55 d9 2f be
       0.16312437 -0.17870158 -0.084222846 -0.1717275
000160 6a df 0d be e0 0a 0d 3e 3f e4 5c 3e be 05 45 bd
       -0.13854757 0.1377368 0.21571444 -0.04810118
000170 3a b3 2f be f5 fc ba 3d 6d 9a e2 bd ea 94 ef 3e
       -0.17158213 0.09130279 -0.11064611 0.467933
000180 cd d4 a7 bd 72 3c e0 bd df 71 97 bd af 4c af bd
       -0.081948854 -0.10949029 -0.07394766 -0.08559548
000190 27 4b 67 bc 7e 26 82 3d d2 32 ff bd fc ff 38 be
       -0.014117039 0.06354998 -0.12460865 -0.180664
0001a0 b2 05 65 3e 9b 56 e7 3d 96 c9 0c 3e f9 f8 62 bd
       0.22365454 0.112958156 0.13748774 -0.05541322
0001b0 27 59 8a 3e 60 1c 7f be 71 17 9e 3d 0a b8 06 be
       0.27021143 -0.24913168 0.07719315 -0.13156143
0001c0 68 b6 37 3d 89 b3 63 be 8d 72 c1 bb 52 69 33 be
       0.04485169 -0.22236456 -0.005903548 -0.17520645
0001d0 8f 14 c6 bd 00 33 10 be 3f b7 10 be 57 40 0e be
       -0.0967189 -0.14081955 -0.14132403 -0.13891731
0001e0 39 01 33 3e a2 37 99 be 23 25 c2 bd bf d6 5d bc
       0.17480935 -0.29925257 -0.094797395 -0.013539969
0001f0 da a0 3b be 97 a7 0c 3f 54 68 f5 be c0 e3 9e bd
       -0.18323079 0.5494322 -0.4793116 -0.077582836
000200 ab 1a c9 be 39 bd c9 bc 67 35 98 be d7 55 09 3e
       -0.3927816 -0.024626361 -0.29728243 0.13411652
000210 5d 59 08 be b7 8a 74 be 6b f9 fd bd 11 d4 c6 3d
       -0.1331534 -0.2388104 -0.12401088 0.09708417
000220 f7 b5 93 be 38 ae 0b 3e 7d 00 cf bd 6f 8e 77 be
       -0.28849766 0.13640678 -0.10107515 -0.24175428
000230 d3 a6 5f bd 3f dd 22 bd 9c 2d b0 3d 46 bc d3 3d
       -0.054602455 -0.039761778 0.08602449 0.10338645
000240 71 1d 2b 3e 9e f9 86 3b 1f 57 3f 3d fd 29 87 3d
       0.1671045 0.004119112 0.046713945 0.065998055
000250 04 b6 86 be a8 51 b0 bd 59 00 04 be 0d db 53 be
       -0.26310742 -0.08609325 -0.12890758 -0.2068903
000260 f4 d8 8e 3e 1b 9b c7 be a9 e7 56 3c 18 8c de bd
       0.27899897 -0.38985524 0.0131167555 -0.108665645
000270 f5 8f 96 be df 1c 48 3d d0 02 40 be d2 61 57 3e
       -0.29406705 0.04885566 -0.18751073 0.21033409
000280 4f 18 0a be 6a 8c e8 bd 2a c0 e6 bd b5 71 c0 be
       -0.13485835 -0.11354907 -0.11267121 -0.37586752
000290 d0 d0 8e be f8 36 ac bd bf 9f b4 be c9 e5 a3 be
       -0.27893686 -0.08408922 -0.35278127 -0.3201125
0002a0 6a 90 ef bb 2b ec 3d 3e a9 66 17 be 8a 62 eb be
       -0.0073109167 0.18547122 -0.14785255 -0.45973617
0002b0 90 7d 16 3e a3 63 1c 3c 1e 1f 00 3e 59 af 21 be
       0.14696336 0.00954524 0.1251187 -0.15789546
0002c0 65 8d 4f 3c 5a ab cf bd d9 93 8d be fe e0 eb 3e
       0.012667988 -0.101401046 -0.2765186 0.46070093
0002d0 97 e3 b5 3d 05 22 0f be d2 23 60 be 5f 49 eb 3d
       0.088813 -0.13977821 -0.21888664 0.11488604
0002e0 68 6d 62 3e 43 9d 67 3e 3a 84 1d 3e 5b ec 9e be
       0.22112048 0.22618584 0.15382472 -0.310397
0002f0 92 c8 d1 3e 58 dc b3 bd de ac 13 3e b3 6d 98 be
       0.40973336 -0.087822616 0.14421412 -0.29771194
000300 27 74 5c 3e 03 f4 2c be 81 88 ab 3c be 79 0b be
       0.21528684 -0.16889958 0.020939114 -0.1362066
000310 40 25 a8 be 35 7a b0 3d f8 1b e0 bd c2 bb df bd
       -0.3284092 0.08617059 -0.109428346 -0.10924484
000320 fc 32 00 3e 74 95 e1 bd d5 02 58 be 33 03 80 bc
       0.12519449 -0.11014834 -0.2109483 -0.015626526
000330 fa 21 0e be 69 aa 64 bd 34 73 33 3d 96 b7 45 be
       -0.13880149 -0.05582658 0.043811038 -0.19308314
000340 35 b6 8e be f9 00 a0 be 77 e2 9e bd a3 ac 8e 3e
       -0.27873388 -0.31250742 -0.077580385 0.27866086
000350 6c cb 74 3d 18 ab 6c be 39 d1 8d be 58 d1 22 be
       0.05976431 -0.23112142 -0.27698687 -0.15900171
000360 d8 7f 6e bd e0 dd 46 be 92 5d 43 be 30 19 4e be
       -0.05822739 -0.19420576 -0.19078663 -0.20126796
000370 d3 31 22 3e 34 07 5f be f2 17 13 3e 18 f8 ab be
       0.15839319 -0.21780092 0.14364603 -0.33587718
000380 71 50 b5 bd 37 01 ae be 1a 28 90 be a3 60 00 be
       -0.088532336 -0.33985302 -0.28155595 -0.12536864
000390 3f 26 13 be 4c 82 8a be 98 21 a2 3e fc 8f 83 be
       -0.14370058 -0.27052534 0.31666255 -0.2569579
0003a0 e8 ca c7 be 68 8c f7 3d fe 8d cf be 9d 01 64 be
       -0.39021993 0.12087327 -0.4053802 -0.2226624
0003b0 41 db a6 be 32 49 75 be cc 89 75 bd ab b5 c2 be
       -0.32589152 -0.23953703 -0.059945866 -0.38029227
0003c0 08 aa 2e be f5 04 97 be 34 89 67 be 21 cd 0d be
       -0.1705705 -0.2949597 -0.22610933 -0.13847782
0003d0 e1 58 a2 3d c3 fd e0 bd bf 69 d5 3e 8e 34 4b be
       0.079271086 -0.10985901 0.4168224 -0.19844267
0003e0 3d de 10 be 9b 65 a2 3e e7 29 1a 3d 03 83 ca be
       -0.14147277 0.31718144 0.037637617 -0.3955308
0003f0 1d 18 2d be 7f a2 cb bc 94 9d c7 3e e7 76 14 bd
       -0.1690373 -0.024857758 0.3898741 -0.036246207

linear2.weight f4 [3, 256]
000000 a2 50 83 3e 94 ce 79 be fe 02 60 3e 9f 76 91 be
       0.25647455 -0.2439521 0.21876141 -0.28410813
000010 60 d7 11 be 5c 09 6e 3e c4 ac b4 bd ae 06 c9 be
       -0.14242315 0.23245758 -0.08822015 -0.3926291
000020 e8 9e 91 3e c9 53 fe bd e4 7f c8 3d cc 86 8c be
       0.28441548 -0.124183245 0.09790018 -0.27446592
000030 d1 90 7d bc 6f ed 43 bd 30 85 22 be e3 2f 86 3e
       -0.015476421 -0.047833856 -0.1587112 0.2620841
000040 20 03 bd 3d 84 94 36 be d2 fe 50 bd 75 de e2 3d
       0.09229112 -0.17830092 -0.051024266 0.110775866
000050 25 65 4a be fc 2e 3d be 31 e8 eb 3e 5f da 3a 3e
       -0.19765146 -0.18474954 0.46075585 0.18247364
000060 cf 82 3e be fb 0d 46 3d 95 02 6d 3b ed a5 c8 be
       -0.18604587 0.048353177 0.003616487 -0.3918909
000070 73 07 b0 be 2f 9e 22 bf f0 31 45 3e 43 94 9d be
       -0.34380683 -0.6352262 0.19257331 -0.30777177
000080 c2 f8 8b 3e 80 05 4e 3e 58 02 a2 bd 4f d6 f6 bc
       0.27338225 0.20119286 -0.07910603 -0.030131487
000090 84 d7 c2 3e ea cf ac 3e ba 76 bb 3e b4 74 30 3e
       0.3805505 0.33752376 0.3661402 0.17232019
0000a0 e2 1f c6 3e 27 23 21 3d 62 56 0e bf eb 6a d4 be
       0.386962 0.039340165 -0.5560056 -0.41487822
0000b0 e1 05 97 be 0e 24 99 3e 12 07 a4 3d 5f 20 b3 bc
       -0.29496673 0.2991032 0.08009161 -0.021866022
0000c0 7d a5 bd 3e 1d 59 01 bf 6d 2a 50 3e 3c 15 aa 3e
       0.3704032 -0.505266 0.20328684 0.33219326
0000d0 de 15 4e bf a3 22 ba be c5 2a 93 3d cc 02 14 be
       -0.80502117 -0.3635455 0.07185892 -0.14454192
0000e0 e1 73 17 be 99 3c 1a be bf 76 f6 3c bc c8 90 3e
       -0.14790298 -0.15062179 0.03008592 0.28278148
0000f0 fc 24 00 bd 96 08 9a be d6 e9 e1 be e7 3b a7 be
       -0.03128527 -0.30084676 -0.44123715 -0.3266289
000100 39 e9 ca be cd 11 16 be e2 e3 d4 3d 72 ed 2f 3d
       -0.3963106 -0.14655228 0.10395028 0.042951055
000110 21 3f 2b be 90 3b 74 3e 3c 6e c1 3e de 21 2a bd
       -0.167233 0.23850846 0.37779415 -0.041536205
000120 6a 3f bb be 59 87 86 be 09 a9 ae 3e bf e5 9b be
       -0.3657182 -0.26275137 0.3411334 -0.3044872
000130 b8 95 a6 bc df d4 46 3e 21 63 44 bf 60 b7 45 3d
       -0.020335063 0.19417141 -0.7671376 0.048270583
000140 d3 17 18 be 85 98 53 bc 25 71 fb 3e e0 dc 24 be
       -0.14852838 -0.012914781 0.4910976 -0.16099882
000150 58 96 93 bd 26 42 b0 be 6b 89 ae be 4b 2b 08 be
       -0.0720641 -0.34425467 -0.34089217 -0.13297765
000160 98 4b 56 bc 8d f7 a3 bd b6 cf 48 3d 13 f9 3f bd
       -0.013079546 -0.08006201 0.049026214 -0.046868395
000170 68 0e 76 be 32 3e 48 bd 8f 79 2c 3d 2f da 36 3c
       -0.24028933 -0.04888744 0.042108115 0.011160417
000180 1a f6 a9 bb 11 95 88 bd fb 33 78 be 20 30 3c be
       -0.0051868083 -0.06669057 -0.24238579 -0.18377733
000190 64 4a c8 3e 9e 86 db be 03 e3 c3 be 29 e7 ab be
       0.39119256 -0.42876142 -0.38259134 -0.335748
0001a0 23 1b b0 3a fc bc 4e 3e 4e e5 ea 3e 07 a9 a5 be
       0.0013435822 0.2018928 0.4587807 -0.3235552
0001b0 b1 ea b6 3e 51 4e f3 bc b1 7d 94 3c 9f d4 0c bd
       0.3572593 -0.02970043 0.01812634 -0.03438246
0001c0 d7 de f9 3d f7 56 e8 be 01 70 78 be 80 48 0a be
       0.122007065 -0.4537885 -0.24261476 -0.13504219
0001d0 76 65 c1 be d2 26 9c be ea e0 06 3c 97 59 0f bc
       -0.3777272 -0.30498368 0.008232335 -0.008749387
0001e0 72 94 e1 3e 4a 61 c7 bb ae 88 46 be 53 ae 17 bf
       0.44058567 -0.006084596 -0.19388077 -0.5925037
0001f0 08 12 08 3c 08 51 07 bc 2f 62 b3 bd 9f ba 7b be
       0.00830508 -0.008259065 -0.087589614 -0.24582909
000200 cd 71 aa be da 42 97 be b6 f6 c1 bd 28 52 ba 3e
       -0.33289948 -0.2954319 -0.094708845 0.36390805
000210 ce 95 ce bc f3 18 22 3e b4 b9 ac bc 1b e2 fb bd
       -0.025217917 0.1582983 -0.021084644 -0.122989856
000220 9c 0e d0 bc e4 1a fc 3d 36 c7 2b be ae 9a ae be
       -0.025397591 0.123098165 -0.16775212 -0.34102386
000230 92 2a b3 bd d5 e0 a2 bd d4 80 be 3e 12 6b 88 3d
       -0.08748354 -0.079530396 0.37207663 0.06661047
000240 50 81 98 3e 00 77 c3 be bf 6e af 3e 92 52 21 be
       0.29786158 -0.38176727 0.3426418 -0.15754154
000250 fd 76 df 3e eb 32 dd ba 4c 64 0a 3e e8 6a 4e bc
       0.43645468 -0.0016876137 0.13514823 -0.012598731
000260 6d b3 b7 3d 32 5b 99 bd 97 99 8e be e0 0e fb be
       0.089697696 -0.07488097 -0.27851555 -0.49034786
000270 6c 9b 17 bf 0c 89 90 be 8e 89 38 be 4c 5d b7 3e
       -0.5922153 -0.28229558 -0.18021223 0.35813367
000280 9c aa a5 3d ad 4c 04 3e d8 26 d0 3e 72 33 b9 be
       0.08089182 0.12919874 0.40654635 -0.36172062
000290 cf 6f 8a 3d 25 cb a7 be af 95 0f be 7c ac f3 3b
       0.06759607 -0.32772174 -0.14021944 0.007436333
0002a0 57 bb 71 be de 0c 8d 3e 6d 88 34 bf 90 54 bc 3d
       -0.2360662 0.2754888 -0.7052067 0.091958165
0002b0 7e 7d a3 3e fe 00 f2 3d 25 ba c2 bb e9 dd 16 bf
       0.3193168 0.118165955 -0.0059426003 -0.5893236
0002c0 e0 93 07 bd 7f 1d 8c bd dd 08 10 be e1 fd ca 3d
       -0.03310001 -0.068415634 -0.14065881 0.09911705
0002d0 e2 80 ba be 8d 4f bc be 3a 13 26 be bc ae 35 3c
       -0.36426455 -0.36779442 -0.16218272 0.011089023
0002e0 bf a7 87 3e 36 a2 f0 bd 5f 8b a2 3d c1 b4 22 3e
       0.26495168 -0.11749689 0.07936739 0.15889265
0002f0 0b 72 5f bc 97 35 08 be bb 05 19 bd 56 e9 25 be
       -0.01363803 -0.13301693 -0.03735898 -0.16202292
000300 d1 57 2a 3e 0d 25 5b be 4b 30 15 bd 39 3b b2 bd
       0.16635062 -0.21400853 -0.03642301 -0.08702702
000310 2c c8 28 bd 58 c7 a1 be 62 aa e8 3e 33 3e c2 be
       -0.041206524 -0.315974 0.45442492 -0.3793808
000320 d4 5c 2c bf 2a a5 f0 be 40 24 c9 ba 6d 7a e6 be
       -0.67329144 -0.4700101 -0.0015345886 -0.45015278
000330 97 28 8c be a7 45 ae be 4f 39 db be e3 b4 d4 bd
       -0.27374718 -0.34037516 -0.4281716 -0.10386064
000340 38 9c 8d be 0b 23 01 be bd 9e ae be 01 c0 ba 3e
       -0.27658248 -0.12611024 -0.34105483 0.36474612
000350 3f 3a be bd c4 23 1f bf b4 69 ae bc 70 72 c2 3e
       -0.09288453 -0.6216395 -0.021290638 0.37977934
000360 cf 29 f7 bd 42 39 8d bd c3 67 70 be 23 f3 b5 3d
       -0.12068521 -0.06895687 -0.23477082 0.08884265
000370 e1 ec 01 3f ed 9c c8 3e 22 f5 c3 3e 4a 2b ec bd
       0.50752074 0.39182225 0.3827296 -0.11531694
000380 7f 09 14 be 1b b5 ae 3d 6c 93 56 3d a1 e1 1a be
       -0.14456747 0.08530637 0.052386686 -0.15125133
000390 2c 8d 42 bf dc c5 77 bd 68 15 da 3e 9a eb ab be
       -0.7599666 -0.060491428 0.42594457 -0.33578187
0003a0 23 33 ae be ff 92 a8 bd 0c 46 19 bd 4c 13 2d be
       -0.3402339 -0.08231162 -0.037420318 -0.16901892
0003b0 a9 af 74 3d 80 90 c7 bc c9 14 6d 3e 04 d1 3d be
       0.059737835 -0.024360895 0.2315246 -0.18536764
0003c0 46 7b e7 be 9c 0f 3c 3c 2a 63 cd be 28 3e 8e bd
       -0.45211238 0.011478331 -0.4011472 -0.06945449
0003d0 9c f6 21 bf 41 91 1d bf bb 64 8a 3d a8 1f 02 bf
       -0.6326692 -0.61549765 0.06757494 -0.50829554
0003e0 bc 5c ec bc ab 5b 91 3b a4 fc ea bd ad c9 65 3d
       -0.028852813 0.0044359765 -0.114739686 0.056100536
0003f0 78 10 9e bd c5 2a 2a 3e 63 19 80 3e 41 7a c1 be
       -0.07717985 0.16617878 0.2501937 -0.37788585

linear2.bias f4 [3]
000000 75 0f 29 3e f7 69 63 be f6 d2 56 be
       0.16509803 -0.22208391 -0.20978913
