snake/model/model.pth (torch, 16787 bytes, 4 tensors)

linear1.weight f4 [256, 11]
00000000: 066d 2a3d c667 193e 4c71 013e 4ac2 2d3e
00000010: db07 9dbe c3b4 963e a643 69bd 22ab a8bc
00000020: fbc1 84bd f06e 9f3d 0ada 423d 51fa d23d
00000030: cc2c d03d 5481 8a3e 1b3a 153e 733a 8abd
00000040: 2430 773e c737 e73d fd18 20be 9b7a 2a3e
00000050: 792c 553e a95a 6e3e 28af debc 763e b2bd
00000060: d6a5 073e 95cc 94be 18db 96bd aa2f b0bd
00000070: c108 8bbd 84ea 7fbe ca11 843e 6e82 60be
00000080: 4cb6 fabd 4944 283e 0e95 443e 7341 93be
00000090: 1d10 0bbe 5042 45be 51d5 c73c c5fa 54be
000000a0: 8072 c93d 775f 013e ae3f 163e d215 84be
000000b0: 6dea 863e 6143 6abe 10b1 69be c8e8 833e
000000c0: 026b a5bc 999f 953e 8b25 5cbe 83bc 71bd
000000d0: 1525 293e 611a 283e 96d5 b23c 17b8 3b3e
000000e0: 4426 2dbe e004 6cbd 92d3 ebbd 2949 42be
000000f0: b917 923e 5b22 5b3e 225f 3d3e 247d c2bd
00000100: daf1 0c3e cd8c 873e 8d17 2cbe 0be4 b3bd
00000110: 8ae6 36be 9c9d 3f3d a4c2 023e 98a3 c23d
00000120: 412c 393e 4791 4e3e 1c77 5cbe d84c 6b3e
00000130: 0b79 08be fa7e 133e 9b9d 993e b2b6 35be
00000140: 0ff0 6c3e a564 d7bb 9336 9fbd 1aeb bfbd
00000150: f784 a6bd 2bfe 96be 5788 a83d a701 503e
00000160: f862 17be 47b2 1cbe 156f d73d 78f3 ddbd
00000170: 3a0a 943e faf8 173d 6245 6a3e 06c9 8bbe
00000180: e6a3 c33c d06c 9f3d ef6a 943e ac58 9abe
00000190: a8c3 893e 16ac dbbd 3a80 ab3d 92eb 65be
000001a0: 3284 98be 9f11 88be ecdf 1c3e e629 e63d
000001b0: 75e3 893d bb03 7c3e fcb4 7a3e bd09 2bbe
000001c0: 23ba 57bd 7ce5 00be 7e54 303e feb7 573e
000001d0: 2df0 88be 33f9 c3bd b6b3 2d3e 8a94 0ebe
000001e0: 45f7 9e3c 682f 6c3e 3069 00be f6e4 0abe
000001f0: 40d4 6dbe 49cb 8ebe 3427 253e 9b45 643c
00000200: 5c58 4abe 3cbd 753e 0a9d 48be 530a b63d
00000210: 9000 163d 881e 963e e014 c4bd a192 093e
00000220: 654d 8dbe 32c9 093e 3809 c33d bbcb 61be
00000230: a293 80be 3054 42be a493 0abe 8974 75be
00000240: e571 893e a3ba 9b3e c6e6 75be fea8 6ebe
00000250: 419c 5e3d 09f2 21be 008e 813c 59dd 5dbd
00000260: 66ea 273e 5306 f23d 7ddd 53bd ac2a 9bbd
00000270: 8c1a 12be 5661 93be 1343 8c3e d6c7 ab3d
00000280: b0f3 e6bc 94ad fbbd ccc9 ef3d 0039 0ebe
00000290: 0cb5 ab3b fe0c 43be 9cec 5ebe a39f 0dbe
000002a0: ba96 aa3c d80e 45be ee54 3abe a23f d7bd
000002b0: 3355 8f3e 8487 b7bd 443b 34be fb4d 153d
000002c0: 865b 99be d831 103e 34a0 893e 44eb 31be
000002d0: 5344 203e 082f 083d e8cc 7e3e 9a63 44bd
000002e0: f04a a9bc 7f41 80be 0b52 65be cc63 293e
000002f0: 9473 893d acba cfbd f6f2 b5bd ecfd 36be
00000300: 5057 2c3d 4c92 99be 9bba 3ebe 18be 573d
00000310: fb88 27be 5263 bbbd 2264 28bc 7592 a13d
00000320: cdea 233e 72bb 303e 477d 7abc be97 cc3d
00000330: 6763 6f3e 0954 243d cd19 f13d de29 4a3d
00000340: c45c 9cbe 504a 743e 9afd 73bd 07aa 8ebe
00000350: 61f7 c8bd f021 403d 3f7a ba3d 2eec 70bd
00000360: e068 8c3e 12d7 5bbd f419 c33d c33a 34be
00000370: 9dce 45be 7033 88be ddb3 923e 62a1 6e3e
00000380: bb1e 983e 8234 c03d df4c 893e a79d 833e
00000390: f625 9b3e 4e13 21be e6d6 86be 514e 2ebe
000003a0: 9c66 06be 32f0 10be 3f60 06be 0e1e 883e
000003b0: 66c5 08be 21ca 373e f584 1dbe 5596 6c3c
000003c0: d97c b5bd 4e16 26be a84f 8fbe 4c30 c03d
000003d0: 6c50 fd3d 4c69 6bbe 6d13 50be 1848 673e
000003e0: ba94 93bd 011d 30be 6ce4 23bb 0d98 8dbe
000003f0: 5aa8 f23d e2ff 84be 3257 813e 40fe a1bc
0.04160788 0.14980993 0.12640876 0.16968647 -0.30670056 0.29434785 -0.05694928 -0.020589415
-0.06482311 0.077848315 0.04757122 0.1030165 0.10164794 0.27051795 0.14572947 -0.067494296
0.24139458 0.112899356 -0.15634532 0.16648333 0.20817746 0.23276772 -0.02718313 -0.0870332
0.13246855 -0.29062334 -0.073660076 -0.08602841 -0.06788779 -0.24991804 0.25794822 -0.21924755
-0.122418016 0.16432299 0.19197485 -0.2876087 -0.13580365 -0.19263577 0.02439371 -0.20798786
0.09836292 0.12634073 0.1467273 -0.25797898 0.26350728 -0.22877266 -0.2282145 0.25763535
-0.020192627 0.29223326 -0.21498697 -0.05901767 0.16518052 0.16416313 0.021830361 0.18331943
-0.16909128 -0.057621837 -0.11514963 -0.18973221 0.28533724 0.21399824 0.18493322 -0.09496525
0.13764134 0.2647461 -0.16805859 -0.0878373 -0.17861381 0.046781167 0.12769562 0.09503859
0.18083288 0.20172606 -0.21529812 0.22978532 -0.13327424 0.14403906 0.30003056 -0.17745474
0.2313845 -0.006573277 -0.07774081 -0.09371014 -0.0813083 -0.2949079 0.0822913 0.2031313
-0.14783847 -0.15302382 0.10519234 -0.108374536 0.28914052 0.037102677 0.2287803 -0.27301806
0.023881864 0.07784426 0.28987834 -0.30145776 0.26907086 -0.10726182 0.08374067 -0.22453144
-0.29788357 -0.26575944 0.15319794 0.1123846 0.06732837 0.24610798 0.24483103 -0.16702934
-0.05266775 -0.12587541 0.17219731 0.21066281 -0.2674574 -0.09569015 0.16963086 -0.1392385
0.019405017 0.23064959 -0.12540126 -0.13563904 -0.23225498 -0.2788947 0.16128236 0.013932611
-0.19760269 0.23997968 -0.19591156 0.08888688 0.03662163 0.29320168 -0.09574294 0.1343484
-0.2759811 0.13455656 0.09523243 -0.22050373 -0.25112635 -0.18977427 -0.13532883 -0.23970236
0.26844707 0.3041583 -0.24013814 -0.23306653 0.054348234 -0.15814985 0.015814781 -0.05416617
0.1639801 0.118176125 -0.0517249 -0.075764984 -0.1426794 -0.287852 0.27394924 0.08387725
-0.028192371 -0.12288967 0.117084116 -0.13888931 0.0052400883 -0.19047925 -0.21769947 -0.13830428
0.020823825 -0.19243944 -0.1819646 -0.10510184 0.2799469 -0.089613944 -0.17600733 0.03645132
-0.2995264 0.14081514 0.26880038 -0.17374903 0.15651064 0.033247977 0.24882853 -0.04794655
-0.020665616 -0.2504997 -0.22394578 0.16541976 0.06711498 -0.10143027 -0.08884232 -0.17870301
0.042075455 -0.29994428 -0.18625872 0.052671522 -0.16360848 -0.09149803 -0.01027778 0.078892626
0.16007538 0.17259005 -0.0152886575 0.0998988 0.23377763 0.040119205 0.11772499 0.049356334
-0.30539525 0.23856473 -0.059568025 -0.27864096 -0.09812809 0.046907365 0.09105348 -0.05881899
0.27423763 -0.053671904 0.095264345 -0.17600541 -0.19317098 -0.26601744 0.2865285 0.2330375
0.29710945 0.09385015 0.2681646 0.25706217 0.303024 -0.1573002 -0.2633583 -0.17022063
-0.1312508 -0.14154127 -0.13122652 0.2658543 -0.13356552 0.179482 -0.1538275 0.014440139
-0.088617034 -0.16219446 -0.2799046 0.09384212 0.12368855 -0.22989386 -0.2031991 0.22586095
-0.07206102 -0.17198564 -0.0025007976 -0.27655068 0.11848517 -0.25976473 0.25261837 -0.019774556

linear1.bias f4 [256]
00000000: 9119 913e eb86 7ebe 92d3 0c3e dcc2 c23d
00000010: 95c4 253e e8d3 2e3e 8005 8e3e 5f2a 90bd
00000020: 1608 1f3e 26fb c7bd 737a 5a3e 27a9 af3d
00000030: 2851 ddbd a42a 173e 87eb 0ebe 3dc2 81be
00000040: d3f9 d0bd 492b 81be 8e8d 803e 88f9 983e
00000050: 59f1 89be 9697 273e 5598 e2bd c101 8ebe
00000060: 677e 323e c124 903e 27ba 913d 88bb 153e
00000070: 4eac 90bd 0ea1 67bc 13de 0fbe e720 8abe
00000080: 2900 163d 6c41 423e 1f5b f0bd 645e 5b3e
00000090: d31e 883b 1dd1 e83d c04f 2fbd aad2 e73d
000000a0: 5481 7d3e 12fd 7dbe ab8e 6a3e 02b8 4bbe
000000b0: 9222 153e 9ed1 163e f5c2 973e 04a7 553e
000000c0: 7cc6 1ebe 55f2 d2bd 3477 42bd 335f 9fbd
000000d0: ba06 61be 9fc1 98be 2cd4 92be dacb 29be
000000e0: 681b d7bd ab3a ef3d 985b 8abe f125 6d3e
000000f0: 86cd 65be 12e2 5e3e 6a43 8a3e 1a90 93be
00000100: 2adc 6cbe 3789 01be 9e2c 05be 96d5 8bbe
00000110: ca4d 553e 1efb ccbd 9bd8 97be 7797 223d
00000120: 9e8a acbd bbfe 83be 2802 cdbd 9955 253e
00000130: 29d5 8abc 477e 963e fbed 773e 860b 8cbe
00000140: 51b9 9b3e 313c 74be 73a1 533e 173a 4b3d
00000150: f4f8 333e d9e3 4a3e 5874 82be 8c7a b83d
00000160: 62c4 8dbe 6a6a efbc e67e 05be bf7e 7b3e
00000170: a5a2 93be 59b9 7f3c 1f3f 46be 5f2e 403e
00000180: 8aa2 3e3e 0f83 8cbe 54cc 563e b683 8abd
00000190: c83b 59be 5b00 2f3e 2243 fd3d 1f88 673e
000001a0: e93e 0e3d f059 c0bd 708b c5bc 56da 79bd
000001b0: 341f 2cbe a0ff 91be ac75 473e 599e 163e
000001c0: 9924 81bd 2cc8 95be 2f68 21bc 9c36 04bd
000001d0: 7e8d 8a3e 47e7 603d f391 80be d88f 833e
000001e0: 4b2b 813e 04e8 0c3c 4801 3fbd 377c 62bd
000001f0: b383 e93d dbb8 9fbe 954f 763e cb31 6f3e
00000200: c507 333e 551a 253e 2347 33be 92d6 bcbc
00000210: 6aa3 523e 3477 7c3e ab3f 3d3e e39d 7abe
00000220: 4754 383c 1116 2d3d 5953 d73b 0b01 25be
00000230: 2f93 ac3c 565d 053e a8f2 98bd bbc8 8abe
00000240: 6010 843e 9e6d c73d 48fd 93bd cf6a a0bd
00000250: 542b 83bd 2fbd 1c3e f3d8 91bd 4a6e 443c
00000260: f5ad db3c b1b9 dcbd b200 10be 6ec1 913d
00000270: 6549 a0be 288c 2cbe 545c 51be 7976 313e
00000280: aa9f f73d c307 68be 2235 91be 6bf3 2ebd
00000290: 0c80 0d3e d4c9 43be 1d13 003e 8874 8cbe
000002a0: 9989 f13d 973a 25bc 6f77 523e d829 3a3d
000002b0: 8b98 643e 1b97 60be 68d0 353e 684d 523e
000002c0: dccc 883e ab55 a03e 491b 333d 1bb6 7ebe
000002d0: 1361 91be a043 be3d 261c 943e 1107 d13d
000002e0: 1f22 963e 4723 323e 286d 753c de4a 963d
000002f0: 1104 51bd f69a 58bc ac05 72be 8e08 a0be
00000300: 9e3b 58bd c97c 5d3d 6ad4 ac3c bb80 96be
00000310: 095b 80be 5727 47bc 0499 1cbe f20d c8bd
00000320: 7647 80be b079 283e b59a 933e df7a 6ebe
00000330: 6e6b a23e 7c07 fb3d f002 d2bd f555 64be
00000340: 57a7 5ebc 8db6 8d3d 14e4 643e 9ad4 d73c
00000350: 3722 203e a32d 71be 2809 293e d005 4d3e
00000360: c79b 81be ea18 aa3d d307 4bbe 032f 7bbd
00000370: a040 10bd b9d5 28bd 128c 6a3e 45d0 773d
00000380: 8b86 4e3d d895 8c3e b6ca 863e 665b 92be
00000390: ea09 303d f99c d7bd 1192 02be 1861 283e
000003a0: 307f 6a3d 0230 8abe d5c8 a4bd d00a 0e3d
000003b0: c935 a9bb ded5 8abe 13c2 913e 0fa9 5d3e
000003c0: 5306 5b3e 484e 3d3d 3c73 39be fd95 8abd
000003d0: b3ed 913e 1755 e1bd 00e7 20be cd81 703e
000003e0: 834b 1cbe e8e7 62be c91c 5bbe c0c4 f1bd
000003f0: 84d0 5cbe 82a7 383e e473 2cbe 7fb0 8c3e
0.28339818 -0.24856155 0.13752583 0.09509823 0.16188271 0.17073023 0.2773857 -0.07039332
0.15530428 -0.097647 0.21335773 0.08577185 -0.10806495 0.1476236 -0.13957034 -0.25343505
-0.102039 -0.25228336 0.25107998 0.29877877 -0.26941946 0.16366419 -0.11064211 -0.27735713
0.17431031 0.2815304 0.07115584 0.14622319 -0.070641145 -0.0141375195 -0.14049558 -0.26978227
0.036621246 0.18970269 -0.1173613 0.21422726 0.004154065 0.1136801 -0.042800665 0.11319478
0.24756366 -0.2480357 0.22905986 -0.19894412 0.14563969 0.147284 0.29640928 0.20864493
-0.15505403 -0.103001274 -0.047476962 -0.0778183 -0.21975222 -0.2983522 -0.286775 -0.1658167
-0.10503274 0.11681112 -0.27023005 0.23159005 -0.22441682 0.21765926 0.27004558 -0.28820878
-0.23130861 -0.1265 -0.13005301 -0.2731139 0.20830455 -0.10008834 -0.29657444 0.03969523
-0.08424877 -0.2578028 -0.10010177 0.16145934 -0.016947346 0.29393217 0.24211876 -0.27352542
0.30414823 -0.23851086 0.20667057 0.049615946 0.17575437 0.1981348 -0.25479388 0.09007749
-0.2768889 -0.029225547 -0.13036689 0.24560069 -0.28835025 0.015608155 -0.19360016 0.18767689
0.18616691 -0.2744374 0.20976382 -0.06763403 -0.21214211 0.1708998 0.1236632 0.2261052
0.034727965 -0.09392154 -0.02411434 -0.060999237 -0.16808778 -0.2851534 0.19478482 0.14708842
-0.063058086 -0.29254282 -0.009851499 -0.032278642 0.27061075 0.054908063 -0.2511135 0.25695682
0.25228342 0.008600239 -0.04663208 -0.05529424 0.11402073 -0.3119572 0.24053796 0.23358838
0.17483433 0.16123326 -0.17507605 -0.023051534 0.2057015 0.24654847 0.18481319 -0.24474292
0.011250562 0.042257372 0.006571215 -0.16113679 0.021066276 0.13023886 -0.07468158 -0.2710627
0.25793743 0.09737705 -0.07226044 -0.07832872 -0.064047486 0.15306543 -0.07121458 0.011989186
0.026816348 -0.10777605 -0.14062765 0.07116972 -0.31305996 -0.1685034 -0.20445377 0.1733035
0.120910004 -0.22659211 -0.2836085 -0.04271261 0.13818377 -0.1911996 0.12507291 -0.27432656
0.11793823 -0.01008477 0.20553373 0.04545006 0.22323816 -0.21932642 0.17755282 0.2053734
0.26718795 0.3131536 0.043727193 -0.24874155 -0.28394374 0.09290242 0.28927726 0.10206426
0.29322907 0.1739627 0.014979638 0.073384985 -0.05102927 -0.013220539 -0.23634976 -0.31256527
-0.05279123 0.054074083 0.02109738 -0.2939509 -0.25069454 -0.012155375 -0.15292746 -0.09768285
-0.2505452 0.1645267 0.2882897 -0.23289059 0.31722587 0.12257287 -0.102544665 -0.22298415
-0.013589702 0.069195844 0.2235263 0.026346494 0.15638052 -0.23552565 0.16507399 0.20021749
-0.2531416 0.08305533 -0.19827203 -0.06132413 -0.03521788 -0.041219447 0.22904995 0.060501356
0.05042128 0.27458072 0.2632653 -0.28585356 0.042978205 -0.10527987 -0.12751032 0.16443288
0.0572502 -0.26989752 -0.08046118 0.03467828 -0.0051638824 -0.27116293 0.2846838 0.21646522
0.21389131 0.046217233 -0.18110365 -0.06766889 0.28501663 -0.11002558 -0.1571312 0.23487015
-0.1526318 -0.22158778 -0.213977 -0.11805105 -0.21563917 0.18032649 -0.16841084 0.27478406

linear2.weight f4 [3, 256]
00000000: 93b4 33bd fb9f 65bd 3cf6 79bd c88c 5b3d
00000010: 5fd5 a13c 7fc1 4b3d 537c 8bbd 7f25 e6bc
00000020: a8fd 2dbd 06f6 5ebd df57 17bd 6727 76bd
00000030: 26da 69bd baaf 583c df0d 32bd 16eb 473c
00000040: 0a06 0ebd 300d 70bc cd89 4e3d b4dc 44bd
00000050: 3c56 73bc ec38 2fbd 93ea c63b dfb4 49bc
00000060: f979 95bd a061 b8bc ce6b 333d 79b8 333d
00000070: 258f 0ebc cfc2 4e3d d1cf 8dbd 02ed dcba
00000080: 4f84 3cbd 3750 2bbd 6346 8f3c 25a8 e5bc
00000090: 36ba a73c 2504 4fbd d726 ad3b 9269 52bd
000000a0: 9057 473d 952a cd3c 7bf9 b93b 5838 be3c
000000b0: 01ac 283c fc64 18bd 2545 7bbd 7a32 16bd
000000c0: 607c 453d b7a3 eabc 22ae 543d f010 30bd
000000d0: 47db e03b 7488 29bb 6f09 bebc a786 17bd
000000e0: f02e 013c 4777 383d f043 8f3c 7914 a9bc
000000f0: 2489 c53a 4ef9 ae3c 241e 99bd 414c 6cbc
00000100: 29f4 0dbc fefc 7fbd e5af 1dbd 82f2 4dbd
00000110: b29f 32bd 682a 2f3d 5ed6 763b 71f5 bb3c
00000120: 5e1e 84bd 22c9 bb3c f8c6 3f3d b78d 3abd
00000130: 39f7 1cbd 2bcb 5e3d 7a2b 19bd 8445 a43b
00000140: 84b9 8ebd fb5f d8bc 973c 76bd 8a68 d53c
00000150: a2da 173d 43a1 8a3c 999a bd3b f896 09bc
00000160: e60d 5b3d 5656 73bd b03a c7bb 5361 4fbc
00000170: 1026 0d3d f072 37bd b023 9cbc adb6 a93b
00000180: 2287 2fbd 9724 92bd c032 63bd 61fd 3cbd
00000190: 6aa1 2ebd 522f c0bc d2b8 94bc e55b 513c
000001a0: e655 d83b d7fe 363d 40b5 ba3c 08d3 96bc
000001b0: 4b83 5cbd a02b e93c 5bb2 edbc c25b da39
000001c0: fe44 22bc 456b 96bc 5ebf d23c 7893 613d
000001d0: 23f4 db3c c8fa 3b3d d216 42bd 89cc 87bd
000001e0: 7aa3 5c3d dcd5 49bd efd0 6fbd c556 a6bc
000001f0: 63e4 40bc a60b 4abd ddba 5dbc 9316 72bd
00000200: b804 39bd 83a2 7cbd c7b9 28bd dd00 653d
00000210: 6d08 e0bc db16 08bd 720f fabc 0e60 1fbd
00000220: 25b8 85bc 4580 8ebd 5655 27bd 4161 603d
00000230: 4948 b5bc 89ba 80bd b019 bbbc ec76 7abd
00000240: 4824 01bd 0aeb d83c e47a 0f3d c392 0b3d
00000250: adcf a3bb e7d8 4b3d 6a94 783c cffc 673b
00000260: 7b1e a23c 0148 c73c 286c 90bc 743f a6bc
00000270: da1d 363d 70ef 64bd 8ff4 5f3d 8353 98bc
00000280: c139 293d 24e1 dcbc c820 0e3c 19bb c13c
00000290: b7a9 65bc 5d50 22bd 58d7 5abd eb09 73bc
000002a0: 1896 683d 2c9a 943c 7f0e 143d 227e 19bd
000002b0: 85b6 12bd ea8f 1d3d ad78 983b 93a1 c6bc
000002c0: 2e3d 81bd edad 5ebc 469d 7ebd 1895 51bd
000002d0: 889b 4f3d 9663 e0bc d05c 3e3d 9fd4 1ebc
000002e0: 105f a339 40f3 9d3c e4ba 683b cbfa e73c
000002f0: 7f35 c9bb 4e1e 1a3c 2b8e 7cbd 5716 fa3c
00000300: 2955 93bc 9481 6dbc de77 17bd ecac 5cbc
00000310: d775 30bd 384a 14bc b7b4 28bd 1bcf c6bc
00000320: c2a7 09bd 6b07 34bd ca70 96bc 0bed 3bbd
00000330: 6fcf 84bc 5ae3 cc3c b487 25bd 25c5 2d3d
00000340: 8411 53bd 94aa 773c 472b e6bc 7bf0 1bbd
00000350: 7b40 19bd 1510 b3bc a21d b33c 21e2 6e3c
00000360: 1c45 ebbc 24e1 a2bb a84c 6d3c 9692 ff3c
00000370: afd6 26bd 670d 923c 0289 453c 4807 56bd
00000380: 2fcd 893c e4c6 40bd 15ad 933c 8313 403d
00000390: 0672 39bd eca6 fa3b 650f 99bc 33f8 41bd
000003a0: 1040 33bd dc8d 30bd 35cb 9ebc e5ba b5bc
000003b0: 9833 25bd c142 be3c ff71 97bd e753 d0ba
000003c0: 389b 6fbb 3e96 793c acb8 a4bc 1803 1e3d
000003d0: 39a3 003d 9ef1 413a 74ee 4d3d 1904 a3bc
000003e0: 6783 65bd 2dbd 88bb 5cfb 8fbc 4bb6 7ebd
000003f0: 4158 db3b bb8a e83b 6674 653b 2c63 fdbc
-0.04387338 -0.056060772 -0.061025843 0.053601056 0.019755064 0.04974508 -0.06810822 -0.028094051
-0.042478234 -0.054433845 -0.036949035 -0.06009617 -0.05709281 0.01322549 -0.04347026 0.012202045
-0.034673728 -0.014651582 0.050424386 -0.04806204 -0.014852103 -0.042778894 0.006070444 -0.012311189
-0.07298655 -0.022507489 0.043803982 0.0438771 -0.0087011205 0.050478753 -0.069244035 -0.0016855302
-0.046024617 -0.041824546 0.017489618 -0.02803428 0.020474534 -0.050541062 0.005284171 -0.05137021
0.04866749 0.025044719 0.0056754923 0.023220226 0.010294915 -0.03720568 -0.06134524 -0.036669232
0.048214316 -0.028642518 0.05192388 -0.042984903 0.0068620774 -0.0025868686 -0.023197858 -0.03699365
0.007884726 0.045035627 0.01748845 -0.020639645 0.0015070778 0.021359112 -0.07476452 -0.014422477
-0.008664169 -0.06249713 -0.038497824 -0.0502801 -0.04360933 0.04276505 0.0037664394 0.022944184
-0.064511046 0.022923056 0.04682061 -0.045545306 -0.038321707 0.054392975 -0.037394978 0.0050131697
-0.06968978 -0.026412955 -0.060116377 0.026050825 0.03707374 0.016922599 0.0057862517 -0.00839781
0.05348005 -0.05940851 -0.006079994 -0.012657481 0.034460127 -0.044787347 -0.019059986 0.0051792474
-0.042853482 -0.07135885 -0.05546832 -0.04614008 -0.042634405 -0.023460064 -0.018154535 0.012778257
0.0066020368 0.044676628 0.022791505 -0.018411174 -0.05383615 0.028463185 -0.02901571 0.00041648565
-0.009904144 -0.018361697 0.025726017 0.055072278 0.026849812 0.04589346 -0.047385044 -0.06630809
0.05386684 -0.049276218 -0.058548864 -0.020305047 -0.011773202 -0.049327515 -0.013533321 -0.05910356
-0.045170516 -0.06167842 -0.041192796 0.055909026 -0.027347768 -0.03322492 -0.030524943 -0.038909964
-0.016323159 -0.06958059 -0.040852867 0.05478025 -0.022129195 -0.06285579 -0.022839397 -0.06114857
-0.03152874 0.026479263 0.035029307 0.03407551 -0.004999122 0.0497674 0.015172103 0.0035398488
0.019789925 0.024326326 -0.017629698 -0.020293929 0.044462062 -0.055892408 0.05467659 -0.018594509
0.041314844 -0.026962824 0.008674808 0.023648785 -0.014017514 -0.03962742 -0.053428024 -0.014833908
0.056783766 0.018139921 0.036146637 -0.037473805 -0.035818595 0.038467325 0.0046530575 -0.024246966
-0.06310497 -0.013591272 -0.062161706 -0.051167578 0.050685436 -0.027391236 0.04647523 -0.0096942475
0.0003116061 0.01928103 0.0035511786 0.02831783 -0.0061404104 0.009406639 -0.06165902 0.03052823
-0.017984943 -0.014496226 -0.03697955 -0.013468962 -0.04308113 -0.009050898 -0.041187968 -0.024268677
-0.033607252 -0.043952387 -0.018364329 -0.04588036 -0.016212193 0.025010753 -0.04041262 0.04242434
-0.051530376 0.015116353 -0.028096808 -0.038071137 -0.03741501 -0.021858254 0.021864716 0.0145802805
-0.028719477 -0.0049706865 0.014483608 0.031197827 -0.040732082 0.017828656 0.012056591 -0.052253038
0.016821472 -0.047064677 0.018026868 0.046893608 -0.045274757 0.007649293 -0.018684098 -0.04735584
-0.043762267 -0.043104038 -0.019384006 -0.022183845 -0.040332407 0.02322519 -0.0739479 -0.0015894145
-0.0036561023 0.015233574 -0.02010759 0.03857717 0.03140566 0.00073983695 0.050276235 -0.019899415
-0.05603352 -0.004172942 -0.017575912 -0.062185567 0.0066938703 0.007096616 0.0035012006 -0.030931078

linear2.bias f4 [3]
00000000: bda3 a13c 1f77 1ebd 9b42 2c3c
0.019731397 -0.03868782 0.010513927
