snake/model/model.pth (torch, 17216 bytes, 4 tensors)

linear1.weight f4 [256, 11]
000000 8c d9 95 be bd fe 23 be 6d 1e 66 3d 88 1d 7b 3d
       -0.29267538 -0.16015144 0.05618136 0.06130746
000010 03 28 86 bc 71 f3 d5 3d 51 6d 8c 3e ac 6e 20 3e
       -0.016376501 0.104468234 0.27427152 0.15667218
000020 b6 95 4f 3d 43 4a a8 3e 21 23 08 be 11 55 7e bc
       0.050679885 0.32869157 -0.1329465 -0.015523211
000030 fb 6e 7e 3e 1f 83 ee bd 56 f7 31 be 7a 97 98 be
       0.24847023 -0.11646103 -0.17379507 -0.29803067
000040 67 88 e4 bd 69 97 28 be 89 ed 0d be 1d 10 a2 bd
       -0.11158829 -0.16464008 -0.13860144 -0.079132296
000050 6a 76 aa bd 39 c4 94 be 08 36 af bd ab 57 80 3e
       -0.08323367 -0.29055956 -0.085552275 0.25066885
000060 1a 26 0f be 66 5f ed 3d dc c9 78 3e b2 fa cb bd
       -0.13979378 0.115904614 0.24295753 -0.09959926
000070 e9 95 8e 3e d0 97 3d be 6f 32 a6 3b 25 c1 59 3e
       0.27848747 -0.18514943 0.00507193 0.21265085
000080 18 63 b2 3e dc ff 39 3e e4 80 98 3d 68 7f 6a 3e
       0.34841228 0.18164009 0.07446459 0.22900164
000090 82 80 22 3e 02 bd 85 3e 27 13 1d 3d d5 16 38 be
       0.15869334 0.26120764 0.038348343 -0.1797746
0000a0 68 69 e4 3d 16 09 1d 3e 71 3f 82 be b4 18 4f be
       0.11152917 0.15335497 -0.25439027 -0.20224267
0000b0 37 16 b1 be 7d 97 65 3e 71 af 86 3d 16 fd f4 bd
       -0.3458726 0.2242107 0.065764315 -0.11962335
0000c0 18 0c 3a 3e ac c2 a8 bc 60 2d 90 3d d8 92 96 3e
       0.18168676 -0.02060064 0.070399046 0.29408908
0000d0 01 98 2e 3e 86 78 b5 3e 91 fb 47 be 98 62 5e 3e
       0.17050172 0.35443515 -0.19529559 0.21717298
0000e0 31 df 73 bd bb 2a ae 3c cc 8c 6b be fd bf 32 be
       -0.059539024 0.02126061 -0.23002928 -0.1745605
0000f0 41 74 24 3e 9d 7c 8e 3e 6f 12 d7 3d df 6b 92 3e
       0.16059972 0.27829447 0.10501563 0.28597924
000100 f5 54 94 3e ec 06 9b bd 1d 48 88 3d 97 f0 85 3e
       0.28971067 -0.075696796 0.066543795 0.26160118
000110 5e 93 fe 3d e7 83 17 3e 48 b4 38 be 04 f7 13 be
       0.12430452 0.1479641 -0.18037522 -0.14449698
000120 b1 de 56 be 74 76 98 bd 4d de 42 3e bb 77 a4 be
       -0.20983388 -0.07444468 0.19030114 -0.32122597
000130 01 41 1b 3e ed 97 6a 3e bd a4 7a be 75 4f f3 3d
       0.15161516 0.22909518 -0.24476905 0.118803896
000140 2f c8 9c 3e d4 61 dc 3d 1c 43 37 3e bc bb 83 be
       0.30621478 0.10760847 0.17896694 -0.25729167
000150 cf 1b 6d be 0e 6d 4f 3e bd 8b c0 3d 59 a0 59 3d
       -0.2315514 0.20256445 0.09401653 0.053131435
000160 64 c8 87 3e fd 86 98 3d 43 63 0b be d0 53 b3 3d
       0.26520073 0.07447622 -0.13612084 0.0875622
000170 86 b5 3f 3e 65 9f 54 bd 36 d7 2a be 66 3a b5 3e
       0.1872159 -0.051909823 -0.16683659 0.35396117
000180 1d b5 cb bc 58 6f 89 3e c3 18 5f be c0 2d 39 3e
       -0.024866635 0.2684276 -0.2178679 0.18083858
000190 ab 1d 68 3d 0c b8 01 3e 02 65 01 3e fa 27 39 bd
       0.05666892 0.12667865 0.12636188 -0.04520414
0001a0 09 54 96 3e 79 36 99 be d6 3e 84 be b1 b2 8b be
       0.2936099 -0.29924372 -0.2582919 -0.27284768
0001b0 88 c5 80 3e 3d 92 ec 3d b7 06 82 3d 9c a0 a7 be
       0.25150704 0.1155133 0.06348937 -0.32739723
0001c0 0d a2 2e bd c5 d6 98 be 51 cb 1e 3c 30 49 89 3d
       -0.042635012 -0.29851356 0.009692029 0.067034125
0001d0 7f 63 a4 bc 23 aa cd bc 0e 39 3e 3e c1 9f 5f 3d
       -0.020066975 -0.025105542 0.18576452 0.054595713
0001e0 59 04 97 3e 44 9f 5f be ff 40 8c 3e c9 0f 9a 3e
       0.29495504 -0.21838099 0.27393338 0.30090168
0001f0 d3 1f 98 3e c8 52 8a bd 3a 2a 6f 3e 17 28 1c be
       0.2971178 -0.067540705 0.23355952 -0.15249668
000200 2a b7 9e 3e e6 1b a6 3d eb f0 c2 bd a4 d4 8d 3e
       0.30999118 0.0811079 -0.09518608 0.27701294
000210 3d f8 9e 3d 35 09 83 be 53 3c 06 be e2 ca 7c 3e
       0.077621914 -0.25592962 -0.1310895 0.24686769
000220 75 a2 63 be 5c 10 41 bd fb 0a 2c 3e 8a 51 d0 3d
       -0.22229941 -0.047134742 0.16801064 0.10171802
000230 cd 15 83 3d e2 54 8a be 1d 09 4d 3e a6 e4 af 3e
       0.064006425 -0.27017885 0.20023008 0.34354132
000240 9f 38 76 bd 66 78 ff 3c 31 70 59 3e 5c 8b be bd
       -0.06011259 0.03118534 0.21234204 -0.093039244
000250 d4 3f 57 be 8c 91 14 3d 60 4f 0b be e5 1c 35 3e
       -0.21020442 0.036271617 -0.13604498 0.17686804
000260 1a 73 37 3e 6e 08 42 3e e6 02 99 3d f4 24 0a 3e
       0.17915002 0.18948528 0.07471256 0.13490659
000270 52 94 a4 be d9 5f 02 3e 0d 8e 4a 3e 52 32 0b be
       -0.3214441 0.12731875 0.1978075 -0.13593414
000280 ca 9e a3 3c da e6 87 bc d1 4a 8d 3e 11 ec 10 3e
       0.019973177 -0.01658957 0.27596143 0.14152552
000290 0e 79 a7 bd 85 da b6 3e 31 f8 b4 3e e9 ef e0 3d
       -0.08177386 0.35713592 0.35345605 0.10983259
0002a0 93 c4 40 be 8a 21 8c 3d f7 65 93 3e 4f 86 e0 3d
       -0.18824987 0.068423346 0.2878873 0.10963117
0002b0 ef dc 5f be f3 10 a8 bd c2 0b 24 3e 8e 85 c0 3e
       -0.21861623 -0.08206358 0.1602011 0.37601894
0002c0 2b 53 d0 3e 14 ea 9e 3e 1a fe 64 3e 5e 66 94 3e
       0.40688452 0.31037962 0.22362557 0.2898435
0002d0 40 54 1c bd 93 85 d0 3c 84 35 29 3e 81 09 60 3c
       -0.038166285 0.025454318 0.16524321 0.013674141
0002e0 84 14 60 3e 05 85 81 3d e5 e0 10 3c 3d 31 d7 bb
       0.21882826 0.063241996 0.008842682 -0.006567149
0002f0 8c a3 95 3e a1 bf 83 3e 4f f6 3c be d9 df 5e 3e
       0.2922634 0.2573214 -0.18453334 0.21765079
000300 46 67 fe bb 0b cf ab 3e c1 b4 66 be b6 2b cc 3d
       -0.007763776 0.335564 -0.2252989 0.09969275
000310 c9 e8 0e 3e 5c e9 a6 3d 1e ae 78 be 1a e5 b9 3e
       0.13955988 0.081499785 -0.2428517 0.36307603
000320 4a 0b 4e 3e 9b 8e 7c 3e 00 17 56 bd 1a 9c 24 be
       0.20121494 0.24663775 -0.05226803 -0.16075173
000330 a1 92 ae bd c6 54 2b be d1 f9 44 3e 88 c6 89 3d
       -0.08524061 -0.16731557 0.19235922 0.0672732
000340 74 0d 0b be 04 31 41 3c 8e f4 c4 3e 14 4b 90 bd
       -0.1357935 0.011791471 0.3846783 -0.0704557
000350 71 ae 3a 3e 42 2e 85 3e ec a0 4f bd df 40 16 3e
       0.18230607 0.26011854 -0.050690576 0.14673184
000360 ce fb 40 3e fe d9 a5 ba 89 2b 7b bc 19 fe 3f 3e
       0.18846056 -0.0012653468 -0.015330204 0.18749274
000370 e0 6b 86 3e 61 da 13 be ea da 87 3e 03 55 36 3d
       0.26254177 -0.14438774 0.26534206 0.044514667
000380 9b 44 db 3d 2c bd 23 3e db f3 04 3e 23 aa 44 3e
       0.10706445 0.15990132 0.12983648 0.19205527
000390 bc 47 61 3e f6 25 92 be 27 37 80 be 70 f5 0b be
       0.2200002 -0.28544587 -0.25042078 -0.13667846
0003a0 97 c5 23 be 25 1f 3a bd 1a 0f b2 3c 07 fa 98 3e
       -0.15993343 -0.045439858 0.021735717 0.29878256
0003b0 56 eb 14 3e 97 eb 29 be 0a 95 90 3e 43 36 05 bd
       0.14542899 -0.16593777 0.28238708 -0.03252245
0003c0 de 67 a1 3e 5c e7 c2 b9 41 7e 11 bd d1 75 d8 3d
       0.31524557 -0.0003717494 -0.035520796 0.10569347
0003d0 57 d1 4d be 60 07 d1 3d 4d 7a 7f 3e 6b 28 a0 3e
       -0.20099388 0.10206485 0.24948998 0.31280836
0003e0 b3 d6 37 be 2a b2 6e 3e 10 c6 83 bd d5 ab 98 be
       -0.17952995 0.23310152 -0.06434262 -0.29818597
0003f0 43 66 ae 3e 38 c1 47 be 5b f4 56 3e 31 a1 0a 3e
       0.34062394 -0.19507301 0.20991652 0.13538052

linear1.bias f4 [256]
000000 0a 7a 69 be 3d 34 30 3d 3e d1 98 3e 08 bc 85 3e
       -0.2280046 0.04301857 0.2984714 0.2612002
000010 cf 4e 6e bd b0 de 0b 3d 46 cf 9c 3b 2a a0 8a be
       -0.058180626 0.03414792 0.004785451 -0.2707532
000020 39 e7 58 be 35 7a e0 3c f3 41 3a bd 85 dd 4b 3e
       -0.21181954 0.027402023 -0.04547305 0.19908722
000030 9b 04 58 be 3e 19 a6 3e c2 00 86 3e 85 ed 1a bc
       -0.21095507 0.32441133 0.26172453 -0.009456043
000040 ad 26 cf 3e 25 68 4b be d3 fa b1 3b c1 31 dd bd
       0.40459195 -0.19863947 0.005431512 -0.108005054
000050 da 4f 9e 3a 56 78 4b 3e 81 57 31 3e ed 7e 83 bd
       0.0012078241 0.19870123 0.17318536 -0.064206935
000060 e4 96 8e bd 49 ef 3e be f0 37 fa 3d 58 f1 e3 bd
       -0.06962374 -0.18645968 0.122177005 -0.11130017
000070 5c 81 33 bb 53 44 80 3e 72 3c 92 3d 58 c7 4a 3e
       -0.0027390337 0.25052127 0.07140435 0.19802606
000080 f2 8a b1 3e 9a 9b 85 3e 5e 2c 7b 3e 14 01 a8 3e
       0.3467632 0.26095277 0.24528643 0.32813323
000090 b7 a3 35 3e e6 6e 56 3e cd 5b 3f 3e b4 54 5d 3e
       0.17738234 0.20940742 0.18687363 0.21614343
0000a0 b6 8f 11 3e 19 84 6f be f0 91 f5 3d 61 94 48 3d
       0.14214978 -0.23390235 0.11990726 0.04896963
0000b0 d1 e0 91 3e 83 55 f9 bd 96 c1 a3 bd 2b 2e 5b 3e
       0.28491834 -0.12174513 -0.07995908 0.2140433
0000c0 b0 92 6e be da 3b 9b 3e 3e cd 02 3e cf 4c a3 3e
       -0.23298144 0.303191 0.12773606 0.31894538
0000d0 fc bc 9f bb 87 6e 5b bd 68 3f 89 3e 46 0e 62 bd
       -0.0048748236 -0.053572204 0.26806188 -0.055189393
0000e0 39 23 fe 3d e2 aa ac 3e 8a 0c 9a be 7c 01 54 be
       0.12409062 0.33724123 -0.30087692 -0.20703691
0000f0 d8 11 1b be 46 61 4b be 72 60 41 3e 22 d1 d4 3d
       -0.15143526 -0.19861326 0.18884447 0.103914514
000100 bd 2b d8 bd 1e d0 9c bc c1 0f 9c bd 81 e5 87 3d
       -0.105552174 -0.019142207 -0.07620192 0.06635571
000110 e9 e8 da 3d 56 65 72 3e ba eb bd 3e f1 e2 35 be
       0.10688955 0.23671469 0.37093908 -0.17762353
000120 fa 57 4b be 8f 14 fd bd 38 cf 98 bd b1 f8 dc bd
       -0.19857779 -0.12357437 -0.07461399 -0.107896216
000130 42 36 56 be 37 29 df bc fd f6 54 bd 47 65 2b bc
       -0.20919135 -0.027241332 -0.05199336 -0.010461158
000140 f3 f5 8c 3e 1b 0e 88 be 2a 4e 28 be 07 d2 c6 3e
       0.27531394 -0.26573262 -0.16436067 0.38832113
000150 82 a2 84 bc c2 6b f8 3c 1f e7 31 be f4 44 37 be
       -0.016190771 0.03032482 -0.17373322 -0.17897397
000160 98 46 16 3e ca 11 cb 3d 38 5e 77 bc 92 47 75 be
       0.14675367 0.09915502 -0.015098147 -0.23953083
000170 a8 8c ba bd a2 71 4e bd f5 8e 43 be a5 ca 4e 3d
       -0.09108859 -0.050401337 -0.19097503 0.050486226
000180 68 d8 a4 3e 75 30 8f bb 6d 38 16 3e 9f b6 e1 3d
       0.32196355 -0.00436979 0.14669962 0.1102116
000190 16 99 a7 bd f7 93 aa 3e 1f 67 b5 3d 35 3f a5 bd
       -0.08183496 0.33316013 0.088575594 -0.080686964
0001a0 cc f5 01 3e 73 da 6b be 32 44 18 bd 66 d5 46 be
       0.1269142 -0.2303255 -0.03717441 -0.19417343
0001b0 7c 96 2c be 0f ac 32 bd 63 c6 8f 3e 4c ee 17 3e
       -0.1685428 -0.04362112 0.28081045 0.14836997
0001c0 9d b0 23 3e a0 b4 8a 3e 17 54 9b be 56 33 1d 3e
       0.15985341 0.2709093 -0.30337593 0.15351614
0001d0 80 4b e0 bd 6b 1f 23 bc 86 54 96 be ea 5f 1f be
       -0.109519005 -0.009956221 -0.2936136 -0.15563932
0001e0 dd 0a 5c be 53 32 8e 3e b7 54 15 be da 2d 8f 3e
       -0.21488519 0.2777277 -0.14583097 0.2796467
0001f0 ad b3 69 be b2 f7 63 be 17 b7 cb 3c d4 54 81 3d
       -0.22822447 -0.22262457 0.024867577 0.06315008
000200 59 0d 58 be 4c 92 6f bd aa 2e be 3d 31 6f f5 3d
       -0.21098842 -0.05848913 0.09286244 0.11984099
000210 79 49 b8 bd 1c 95 3d be ab d7 a1 3e bf 8f e4 3d
       -0.08998389 -0.18513912 0.31609854 0.1116023
000220 1b 03 73 3e cd 9f 37 bd b4 5a 1f 3e 6e b0 c7 bc
       0.23731653 -0.044830132 0.15561944 -0.02437612
000230 df 94 00 3e 4e 8c 36 3c cd 72 89 3e 67 a1 8f be
       0.1255679 0.01114185 0.268454 -0.28052828
000240 9d 42 8e 3e 7e 2e 1c be 64 48 f4 3d e4 32 5c bd
       0.27785197 -0.1525211 0.1192787 -0.05375947
000250 0d e8 ca 3e 3e 8d bd 3e 4a b9 6b 3e 87 d4 61 3e
       0.39630166 0.37021822 0.23019901 0.22053729
000260 81 e8 06 3e 86 15 65 be a3 24 2c 3e 63 3a 42 be
       0.1317463 -0.22371492 0.16810851 -0.18967585
000270 d6 51 91 bb fa dd b6 bc cb ee 0b bd 07 09 0b bd
       -0.0044348044 -0.022322644 -0.034163278 -0.033944156
000280 d9 5e 39 3e d4 ee 94 bd c0 94 14 be 8e d9 a1 bd
       0.18102588 -0.07272115 -0.14509869 -0.079028234
000290 7c 77 2d 3e 3d d3 79 bd 8b 77 0c be 6f d4 35 3e
       0.16940111 -0.06099247 -0.13717477 0.17756818
0002a0 d1 20 38 be cd c4 4a 3e 88 02 0b bd de d5 f4 3c
       -0.17981268 0.19801636 -0.03393796 0.029887136
0002b0 cb 71 7a be 81 f7 84 3e 78 31 a5 3e 68 59 42 3d
       -0.24457471 0.2597008 0.32264304 0.047448546
0002c0 03 76 a5 be 48 b0 b1 3e de 53 09 3e bc 46 52 3d
       -0.32316598 0.34704804 0.13410899 0.05133699
0002d0 e0 c2 f3 3d df d5 d0 3e 1e a8 c0 3e 58 13 9f bc
       0.11902404 0.4078817 0.37628263 -0.019418404
0002e0 bf 91 a7 bc 14 65 88 3e 58 a6 34 bc 46 57 8f 3e
       -0.02045524 0.26639616 -0.011025988 0.27996272
0002f0 37 e6 44 be 66 26 23 be cc 02 21 be 1e 90 b9 bd
       -0.19228445 -0.15932617 -0.15723723 -0.09060691
000300 94 57 01 be 0d 6d 8a 3d 49 7f 2b 3e da d2 7f be
       -0.12631065 0.06759081 0.16747774 -0.24982777
000310 07 47 22 3e 76 5e 96 be 4f 7a 31 3b f2 d7 4b be
       0.15847407 -0.29368943 0.0027080958 -0.19906595
000320 d3 dd b8 3d e5 60 ae bd b9 f5 4e be df 8d 34 be
       0.090266846 -0.08514575 -0.20210923 -0.17632245
000330 08 c2 31 bc 8f 2c b0 3d 4f 64 24 3e ed 8e 9f 3e
       -0.010849483 0.08602249 0.1605389 0.3116373
000340 92 03 00 3e 9a b2 10 be c3 45 92 be 9a 02 b5 b9
       0.12501362 -0.14130631 -0.2856885 -0.0003452495
000350 1d 09 98 3e 91 42 6c 3e d2 4f 3d be 5c 5e da bc
       0.29694453 0.23072268 -0.1848748 -0.026656322
000360 e2 e0 42 3d 29 d8 50 3d e0 20 d3 3c a3 4a 7d 3e
       0.047577746 0.050987396 0.025772512 0.24735503
000370 42 3a 28 be 9c 2f 0d 3d 3b 3a f9 3d be 87 a2 bd
       -0.16428474 0.034469232 0.1216931 -0.07936047
000380 29 c6 5f 3d 50 fb 96 be ff 6b f1 3d 0b 1b ec bd
       0.05463234 -0.2948861 0.11788177 -0.115285955
000390 92 1b 43 be a1 88 a2 be 4e a7 88 3e b8 1f ae 3c
       -0.19053486 -0.31744865 0.26690143 0.021255359
0003a0 98 22 b3 3d 03 47 07 bd ee 68 c0 3e ec 13 25 3e
       0.087468326 -0.033026706 0.37580055 0.16120881
0003b0 00 a3 7c 3d 83 5f 6c be 85 0d b1 3e e1 dc 0c 3e
       0.061678886 -0.2308331 0.34580627 0.13756134
0003c0 05 18 84 be 8e 06 15 be 6a 97 89 3e 62 be 97 3e
       -0.25799575 -0.14553282 0.26873332 0.29637438
0003d0 11 0a 9e 3e 68 29 8b bd 2b cb 3c 3e 7c e0 a4 be
       0.30867055 -0.06795007 0.18436877 -0.32202518
0003e0 9c c8 93 3e 98 0d 27 be a4 f0 8d 3e 41 34 a0 3e
       0.2886399 -0.1631378 0.27722657 0.31289867
0003f0 e4 6d 6e bc bf 74 2f 3e 8b 82 bd 3c 81 0a b0 3e
       -0.014552567 0.17134379 0.023133537 0.34383014

linear2.weight f4 [3, 256]
000000 54 5b 1e 3c b6 26 eb 3c b3 c2 1c bc 88 0e 20 bd
       0.009665329 0.028704982 -0.009567904 -0.039076358
000010 15 d3 eb 3c d1 00 aa bd a2 37 6a bd 2c 28 83 bd
       0.028787175 -0.08300937 -0.05718196 -0.064041466
000020 54 a6 df bd 0f b3 ca bd f4 de 3b bd 6e 3a 29 bd
       -0.109203964 -0.09897434 -0.04586692 -0.04131549
000030 0a e3 13 3d a4 13 f3 bd 04 ef af bc 44 1c c7 bd
       0.036105193 -0.118689805 -0.021476276 -0.09722188
000040 2f b6 c7 bd eb c0 13 bd 36 06 0e bd 5c ce da bc
       -0.09751546 -0.036072653 -0.034673892 -0.026709728
000050 0c f2 c9 bd 85 81 a2 bd 5d 98 dd bd 63 4c 37 ba
       -0.0986062 -0.0793486 -0.108200766 -0.00069922785
000060 10 4a 9b bd fd 7a 3a 3c 07 9f c0 3b 18 67 8f bd
       -0.07582486 0.011381862 0.0058783325 -0.070020854
000070 52 cb 5b 3d 18 21 2b bd 7f 20 a2 3d f7 c3 64 bd
       0.0536607 -0.041779608 0.079163544 -0.05585095
000080 46 d8 99 bd ae d3 47 bd 82 9e 65 bd 3a 64 c3 bd
       -0.07511954 -0.048785858 -0.056059368 -0.09540601
000090 00 f9 58 bc f1 1f 6d bd 72 52 e0 bd 7e b2 a4 bd
       -0.01324296 -0.05789179 -0.10953225 -0.08041857
0000a0 44 ca 08 3d 30 01 62 bd 6b 79 ec 38 4e 6b 5a bd
       0.03339602 -0.055176914 0.00011275973 -0.05332499
0000b0 3d 77 29 3d ea e7 2d bd 10 90 bc bd 24 32 a2 bb
       0.04137348 -0.0424575 -0.09207165 -0.004949825
0000c0 2e b9 5b bd de 35 3f bd 59 0d 30 bd f0 d0 e3 bd
       -0.053643398 -0.04668223 -0.04298148 -0.11123836
0000d0 58 02 c7 bd bf a7 a2 bc 1a 2a 7e bd eb 70 17 bb
       -0.09717244 -0.019855378 -0.06205187 -0.0023108076
0000e0 f3 b5 48 3d b1 1a d9 bd c0 44 51 3d 89 b2 44 bd
       0.049001645 -0.10600794 0.051090956 -0.048021827
0000f0 06 d0 c6 3c 64 9a cc 3c 57 c6 ff bd d2 b8 c5 bc
       0.024269115 0.024975963 -0.12489002 -0.02413598
000100 85 cb a3 bd f2 8b af bd 63 a4 2c 3c 13 e0 9e bd
       -0.07997803 -0.08571614 0.01053724 -0.077575825
000110 15 aa 94 bd b4 4d 4d bd 4c e6 b3 bd a2 13 d9 bc
       -0.07259003 -0.05012293 -0.0878416 -0.02649862
000120 81 e0 fd bb 44 27 8a bd 75 c0 75 3d 64 02 07 be
       -0.00774771 -0.067457706 0.059997994 -0.13184506
000130 fb 98 47 bd dd f7 c8 bd 7e 1c 42 3b 9e 74 08 bd
       -0.048729878 -0.09812901 0.0029619033 -0.03331434
000140 8e 2a a9 bd cf a4 d6 3d e3 35 c1 bd de 5a f2 bd
       -0.0826007 0.104806535 -0.09434106 -0.11833738
000150 af 10 72 3d f7 00 97 3c b2 86 ce bd fc d5 9d bc
       0.059097942 0.018433077 -0.10084285 -0.019267075
000160 a4 d7 f8 bc 33 5a 5e bd 29 8c b8 bd 2f ee 47 3d
       -0.030376263 -0.05428524 -0.090111084 0.048811134
000170 61 9e c8 bc ab e2 f2 bc 11 f5 6b bd e3 40 4f bc
       -0.024489583 -0.0296491 -0.05760676 -0.012649748
000180 b9 48 cd bd 18 2a 27 bd ee ce 5e bc 6d 45 40 bd
       -0.10023636 -0.040811628 -0.013599141 -0.04694121
000190 ef 25 41 3d 06 30 5c bd cc 92 ac bd a1 a5 58 bd
       0.047155317 -0.053756736 -0.08426437 -0.05289233
0001a0 69 db dd bc ca c0 19 3d 4a 1b ce bd 8f d0 02 3d
       -0.027082162 0.037537374 -0.10063799 0.03193718
0001b0 c3 c0 e1 bc 36 45 ca bd 9d 43 1b bd 01 e3 fe b8
       -0.027557736 -0.09876482 -0.037906278 -0.000121539466
0001c0 ff 8b 6b bd 87 e3 f2 bd d8 53 5b bd da b3 d9 bc
       -0.057506558 -0.11859804 -0.053546757 -0.026575018
0001d0 70 a2 ba bd 4d cc e3 bd bf 1a 0e 3d a5 01 1e bd
       -0.09113014 -0.11122952 0.034693476 -0.038575787
0001e0 9b 34 bb bc fa 72 cb bd 17 0f 31 bd f8 8b c2 bd
       -0.022852233 -0.099340394 -0.04322728 -0.09499353
0001f0 3f 20 96 bd 2a ce a6 bc b2 d0 58 3c ad b4 b5 bd
       -0.07330369 -0.020361979 0.013233351 -0.08872352
000200 45 50 36 3c f1 3a 9a bc da bd 6c bb 14 d6 1b bd
       0.011127536 -0.018826934 -0.0036123903 -0.038045958
000210 2b 19 f6 bc 91 3c 8c bd bf 4e 88 bd 76 f9 56 bd
       -0.030041298 -0.068474896 -0.066556446 -0.052484
000220 25 fe 36 bd 9d c5 cc 3c fb 84 e8 bd ac d2 03 be
       -0.044675965 0.024996573 -0.11353489 -0.12873334
000230 ba 99 66 bd dd df 0d bc 3b 82 ac bd c0 35 b8 3c
       -0.05629895 -0.00865933 -0.08423277 0.022486567
000240 a4 01 55 bc d7 63 e5 bd 47 24 3c bd 5d 84 e3 bd
       -0.013000879 -0.112006836 -0.045933034 -0.11109231
000250 cf b0 7f bd e3 ab ce bd 91 ff d7 ba 59 22 ff bd
       -0.062424477 -0.100913785 -0.0016479363 -0.12457723
000260 42 9d 96 bd c2 31 8e bd 4c d1 94 bd b6 d3 5a 3d
       -0.07354213 -0.06943084 -0.07266483 0.05342456
000270 20 90 9e bd 1e 1e da bd fd 7b 0c bd e7 3b ae 3d
       -0.077423334 -0.10650276 -0.034297932 0.08507519
000280 d6 13 c6 bd 74 02 9d bc a3 2f 15 3d 65 27 09 3c
       -0.09671752 -0.019166209 0.036422383 0.008371209
000290 13 77 c8 bd 99 00 40 3c f4 2b f1 bc 5d fc db bd
       -0.097883366 0.0117188925 -0.029439904 -0.10741494
0002a0 0a 70 08 ba f3 02 30 bd 8b b2 31 3d 2a ce 87 3c
       -0.00052046834 -0.042971563 0.043383162 0.016577799
0002b0 89 85 0c bd 34 6f 89 bd 27 24 e4 bd 2e 6a 1a be
       -0.034307037 -0.067106634 -0.11139708 -0.15079567
0002c0 22 e8 93 3b 37 c8 f5 bd 91 a5 0c bd 77 dd 55 bb
       0.0045137564 -0.120010786 -0.034337584 -0.0032633224
0002d0 30 97 32 3c 2b b0 14 be 44 db b0 bd f5 a4 07 be
       0.010900304 -0.14520328 -0.086355716 -0.1324652
0002e0 5d 92 d3 3c 0d 0c a7 bb 96 68 71 3c 09 f6 c4 bd
       0.025826627 -0.005097872 0.014734408 -0.0961724
0002f0 03 c3 ab 3d 96 4a 47 bd 89 cc 0c bb 51 4c cd 3b
       0.08386805 -0.048655115 -0.0021484217 0.006265201
000300 bc c1 66 3c 6f fc 06 bd 5b a2 8c bd 5f 3c fc bd
       0.014084276 -0.032955583 -0.06866904 -0.12316202
000310 44 04 f3 3d 2e 1b da bc 8f 4e 07 be 77 1a ea 3d
       0.11866048 -0.026624288 -0.13213561 0.11430829
000320 b8 e1 5f bd c2 2d fe bd 10 c5 85 bd 2e 96 fb bd
       -0.05465862 -0.12411071 -0.06531727 -0.12284504
000330 7e 8c 02 bc b5 5d 89 3d 39 09 35 3d 5c af a0 bd
       -0.007968066 0.06707326 0.04419825 -0.07845947
000340 eb 53 fa bd 6a de d4 3d a0 40 23 3c 05 a9 e2 bd
       -0.12223037 0.103939846 0.009964138 -0.11067394
000350 60 09 20 bd 77 c7 e4 bd a3 47 94 3d 42 e1 b4 bc
       -0.03907144 -0.111708574 0.07240226 -0.022080068
000360 4e 7a 0c be 81 60 45 bd 82 b2 63 bd 09 88 0f bd
       -0.1371853 -0.048187736 -0.05559016 -0.035041843
000370 62 98 a3 bb c8 bb f3 bd 9d 5d c0 bd 5c ee 56 bc
       -0.0049925307 -0.11901051 -0.09392855 -0.013118353
000380 50 c7 54 bc ba 55 29 bd b7 e7 f7 bc 30 29 50 bd
       -0.012986973 -0.04134152 -0.030261857 -0.05082053
000390 0c 12 b7 3c 7d b8 73 bc 3f be 8a bd 11 20 a5 bc
       0.022347473 -0.014875528 -0.06774568 -0.020156892
0003a0 91 c3 d4 bc 05 f6 8e bd 99 b9 bf bd da 75 b3 bc
       -0.02597216 -0.06980518 -0.09361572 -0.021906782
0003b0 56 15 0d be 09 8a 0a bc a0 d8 c2 bd f1 6a be bd
       -0.1377767 -0.008455762 -0.09513974 -0.09297741
0003c0 e3 24 38 bc b2 73 60 bd 60 60 6d bd 54 38 03 be
       -0.011239263 -0.054797836 -0.05795324 -0.12814456
0003d0 43 3c 95 bd eb 19 ac b9 a2 26 ab bc 10 94 c9 3d
       -0.07286885 -0.00032825707 -0.020892445 0.09842694
0003e0 f6 c5 2b bd 2c bb d2 3c 8a a7 63 bd d1 aa ee bd
       -0.041936837 0.025724016 -0.0555797 -0.116536744
0003f0 11 03 df bd 8b 15 ac bc 75 46 fb bb 70 74 0b be
       -0.10889257 -0.021006366 -0.0076683112 -0.13618636

linear2.bias f4 [3]
000000 f3 d9 07 be ac a3 51 bd 0b 21 bc bd
       -0.13266735 -0.05118148 -0.0918599
