snake/model/model.pth (torch, 17216 bytes, 4 tensors)

linear1.weight f4 [256, 11]
0.291073 0.082526974 0.16400556 0.13115174 -0.032908477 0.23048377 0.26551595 -0.103660926
0.0030428409 -0.2677795 0.07086397 -0.277464 -0.058955032 0.057834204 -0.13618891 0.07923372
-0.016959267 0.27077687 -0.22746947 0.22413412 -0.18479037 0.038631156 0.2510628 0.0087188035
-0.09469672 -0.06478422 0.11001942 -0.19220102 -0.16830136 -0.25102925 0.25463134 0.23190005
-0.0160723 -0.16249017 0.10481152 0.07600825 -0.179398 0.21211609 0.047371056 0.09235401
0.1575857 0.0687432 0.014841054 0.010308317 0.058875743 -0.09610233 0.14230359 -0.07842907
-0.26330176 0.1886782 -0.13887765 -0.15821692 -0.13002189 0.13589808 -0.12339482 0.15329279
-0.16577144 -0.17531237 -0.19281821 0.031173928 0.1385403 0.14984842 0.055030644 0.05261672
0.24148688 0.10094782 -0.1642093 -0.27171314 -0.012597538 0.11325478 0.23399507 0.112093925
0.13104977 -0.23934485 -0.22073424 -0.19300184 0.042813934 -0.2897175 0.07246633 0.32120758
0.1474437 -0.18135813 0.24723893 0.088155344 0.08709343 -0.1757985 0.07818738 0.30125627
-0.13184823 0.1607353 -0.15574147 0.12443235 0.225033 -0.114988625 0.2818949 0.014560383
-0.08823704 -0.06395188 0.07205609 0.053682834 -0.058714632 -0.08155318 0.3132058 -0.08333449
0.29296532 0.15808001 0.065734014 -0.09134162 0.26377213 0.00957676 0.12830779 0.29105687
-0.24227172 0.1545921 -0.05117365 -0.2130112 -0.1731499 -0.25962836 -0.110037126 0.19524162
-0.2199299 -0.12571077 -0.014369166 -0.16967823 0.23492591 -0.0734472 -0.2998604 -0.1698455
-0.029170873 -0.3050731 0.01917928 0.18043128 -0.020664345 -0.05719056 -0.14814018 -0.23537685
0.2394403 0.24903183 -0.2299522 0.14258365 0.25952718 -0.20029637 0.18133108 -0.17610413
-0.077403866 -0.22113754 -0.088761345 0.1639906 0.22068009 -0.21628384 0.29360503 -0.07846379
-0.28654322 -0.03172552 0.09284907 -0.2509991 -0.24963206 -0.104159825 0.22354731 0.057185795
0.18704604 -0.19375359 -0.3029979 -0.19172078 -0.0052196984 0.12829927 0.22462174 0.171316
0.1311553 -0.07517025 0.13574648 0.09876896 0.09727411 0.23059876 0.18718545 -0.26280698
0.07400431 0.22581315 -0.1386159 0.24302192 0.100606985 -0.07092548 -0.20930749 -0.11752378
0.012424128 0.18524213 -0.29099846 -0.21849859 -0.054926835 -0.16701019 -0.20010981 -0.27214772
0.061964575 -0.18170805 -0.1209759 -0.21549915 -0.11753267 -0.27517965 0.23470876 0.24443118
-0.22795838 0.23905376 -0.25063285 0.059720643 0.050766036 0.06789403 -0.16454566 0.24541585
-0.22036885 -0.27336475 0.053157598 -0.008106032 0.14705709 -0.2680695 0.026735809 0.19908234
0.25097844 -0.15313604 -0.21537387 -0.2761777 0.113949575 -0.1442367 0.10798106 0.18416111
0.10367439 0.29218653 0.220831 0.3230035 -0.051138636 0.029137101 0.2893984 -0.23399207
-0.18404628 -0.2696895 0.089699976 -0.08191688 0.16090992 -0.27213758 0.249626 -0.14318788
-0.15240765 0.13958535 -0.09803215 -0.011125279 0.08320973 0.28843418 -0.17195904 0.044927526
0.28364345 -0.07414097 0.22446199 -0.21283223 -0.17224395 -0.13196951 0.15797876 -0.113407195
00000000: 8507 953e e703 a93d 13f1 273e a44c 063e
00000010: 0acb 06bd f003 6c3e b5f1 873e 2e4c d4bd
00000020: 666a 473b 651a 89be 2121 913d c30f 8ebe
00000030: d57a 71bd 8fe3 6c3d 1b75 0bbe 4a45 a23d
00000040: 29ee 8abc 44a3 8a3e c2ed 68be 6a83 653e
00000050: b039 3dbe b43b 1e3d 4e8b 803e 50d9 0e3c
00000060: 5bf0 c1bd 97ad 84bd dd51 e13d 58d0 44be
00000070: 3157 2cbe e886 80be 0a5f 823e 3577 6d3e
00000080: 0eaa 83bc d363 26be 6ca7 d63d 37aa 9b3d
00000090: 1cb4 37be f634 593e 2708 423d 1924 bd3d
000000a0: 255e 213e 3cc9 8c3d e427 733c 37e4 283c
000000b0: b127 713d 4cd1 c4bd 08b8 113e 6c9f a0bd
000000c0: 7dcf 86be dc34 413e f135 0ebe 9e03 22be
000000d0: 7524 05be de28 0b3e 6cb6 fcbd c9f8 1c3e
000000e0: fdbf 29be 1685 33be 2372 45be 7760 ff3c
000000f0: 82dd 0d3e dd71 193e d067 613d a184 573d
00000100: 5648 773e bbbd ce3d 7c26 28be fc1d 8bbe
00000110: e765 4ebc 1ff2 e73d 679c 6f3e 8091 e53d
00000120: e931 063e d116 75be 2808 62be 46a2 45be
00000130: aa5d 2f3d da55 94be 3a69 943d 5275 a43e
00000140: 7bfb 163e f2b5 39be 342c 7d3e ca8a b43d
00000150: 0a5e b23d 8604 34be b520 a03d 433e 9a3e
00000160: 3903 07be cb97 243e b17a 1fbe 63d6 fe3d
00000170: 0d6f 663e 287f ebbd 8754 903e ac8e 6e3c
00000180: 9fb5 b4bd 34f9 82bd 2592 933d 88e2 5b3d
00000190: c17e 70bd 5b05 a7bd 835c a03e 46ab aabd
000001a0: 8dff 953e badf 213e 8e9f 863d 5111 bbbd
000001b0: 240d 873e d8e7 1c3c 1e63 033e 6805 953e
000001c0: 1416 78be 644d 1e3e 769b 51bd 9c1f 5abe
000001d0: 354e 31be 02ee 84be 255b e1bd 6bed 473e
000001e0: 4e35 61be 53ba 00be a76c 6bbc 21c0 2dbe
000001f0: 6b90 703e 7c6b 96bd 4d87 99be fbeb 2dbe
00000200: c1f7 eebc 8b32 9cbe de1d 9d3c fac2 383e
00000210: 4648 a9bc a640 6abd 0fb2 17be a106 71be
00000220: d72f 753e 3302 7f3e 9778 6bbe 7301 123e
00000230: bfe0 843e 7e1a 4dbe dbae 393e a454 34be
00000240: eb85 9ebd e171 62be 82c8 b5bd 27ed 273e
00000250: f6f9 613e 8379 5dbe 6653 963e a0b1 a0bd
00000260: cbb5 92be 9ef2 01bd a727 be3d f482 80be
00000270: 8c9f 7fbe bf51 d5bd 96e9 643e a73b 6a3d
00000280: ff88 3f3e 5767 46be 8a22 9bbe 7452 44be
00000290: 010a abbb e260 033e 3e03 663e 766d 2f3e
000002a0: 934d 063e dcf2 99bd 2001 0b3e 6147 ca3d
000002b0: a637 c73d 1522 6c3e 8bad 3f3e a38e 86be
000002c0: 928f 973d 903b 673e 54f1 0dbe bdda 783e
000002d0: 090b ce3d 6141 91bd b454 56be 4fb0 f0bd
000002e0: 928e 4b3c 1db0 3d3e c0fd 94be 18be 5fbe
000002f0: f6fa 60bd b804 2bbe 96e9 4cbe f256 8bbe
00000300: 91ce 7d3d ad11 3abe 36c2 f7bd cfab 5cbe
00000310: f8b4 f0bd 59e4 8cbe 7e57 703e 2b4c 7a3e
00000320: ec6d 69be 82ca 743e f352 80be a29d 743d
00000330: 0cf0 4f3d 060c 8b3d a87e 28be 4b4e 7b3e
00000340: 5fa8 61be 77f6 8bbe c8bb 593d 2acf 04bc
00000350: 2296 163e 6840 89be 0e05 db3c 3edc 4b3e
00000360: 3f80 803e b2cf 1cbe f88a 5cbe 2a67 8dbe
00000370: 655e e93d c9b2 13be 2d25 dd3d bb94 3c3e
00000380: 3d53 d43d 7999 953e 8621 623e b760 a53e
00000390: bf76 51bd eeb0 ee3c 072c 943e 9e9b 6fbe
000003a0: a176 3cbe be14 8abe 9fb4 b73d 0ac4 a7bd
000003b0: 92c5 243e 9e55 8bbe f59d 7f3e d89f 12be
000003c0: c010 1cbe 76ef 0e3e 14c5 c8bd cd46 36bc
000003d0: dd69 aa3d a5ad 933e 0816 30be ed05 383d
000003e0: b739 913e 39d7 97bd 5dd9 653e b1f0 59be
000003f0: b860 30be 0423 07be 2fc5 213e 0842 e8bd

linear1.bias f4 [256]
0.19246474 0.109907486 0.20722727 -0.15988722 -0.19355425 -0.203922 -0.099316515 -0.05957184
0.1201969 0.31177363 -0.30299905 0.00036485225 0.024183149 -0.19679117 0.25550544 0.29611498
0.29063267 -0.14585744 -0.09747714 0.2734638 0.20357314 0.004279181 0.23067935 0.10733213
0.029113393 -0.035159364 -0.2384614 0.052903127 0.3117645 0.24592601 0.066628136 -0.03232279
-0.09412624 -0.04757339 0.28905872 0.08438542 -0.066862956 0.24661778 -0.19947377 -0.081876494
0.060983054 0.08232084 0.0421219 -0.15486576 0.11532193 0.13488434 0.22479825 -0.0041205008
-0.20858371 0.3291516 0.2578828 -0.09632789 0.14629105 -0.06444754 0.33912754 -0.27747884
0.0127869835 0.075494304 -0.029405193 0.10027643 0.087953314 -0.0014787642 -0.22514898 0.23296432
0.20827745 0.06690629 0.023418961 -0.23514713 0.15145431 0.13014248 -0.20185997 0.087869
-0.041612335 -0.040155638 0.1755854 -0.21554965 0.32498273 0.10975167 0.24199843 -0.1786771
0.034715638 -0.18392743 0.15509292 -0.0719353 0.24271896 -0.049098093 -0.19571535 0.2351883
0.10360198 0.02127293 0.13722725 -0.032595273 0.1921416 -0.06940624 -0.25794405 -0.29019874
0.055254817 -0.014032278 -0.06558298 -0.09982003 -0.10143341 -0.18533473 0.233542 -0.27518272
-0.21182904 -0.26673162 -0.012598909 0.0038567418 -0.13894853 -0.15813506 -0.16383144 0.19093987
-0.20173225 -0.076556675 -0.27955255 -0.14067811 0.2637358 0.22147565 -0.14253241 -0.1864176
-0.10396339 -0.115949996 -0.06550249 -0.020769047 -0.279317 0.117197365 0.3304 0.011607111
-0.15312666 -0.28100532 0.0040440904 -0.14584018 -0.11932269 -0.10076047 -0.19055574 -0.225076
0.037834946 -0.2516341 0.053872105 0.102608755 -0.2371159 0.30684057 0.036912724 0.21873333
0.23956239 0.23435526 0.11375795 -0.11418861 0.1618128 -0.110005945 0.07474189 -0.19504142
-0.081316866 -0.086780235 0.29189733 -0.10498749 -0.19189157 -0.013889378 -0.013031692 0.23635072
-0.056413528 0.05135802 0.08044404 -0.104374014 0.10255201 0.049502004 0.040863324 0.0013122451
0.11476449 0.18303381 -0.16979209 -0.24824649 0.08706943 0.26846957 -0.25012264 0.08115532
-0.33117142 -0.10523445 0.34093994 0.0129844565 -0.19315526 -0.071073346 0.29119545 0.0046965745
-0.24349003 0.07661063 0.16679204 -0.08709718 0.029920084 0.19979152 0.29770792 0.059681658
0.2798544 0.23805624 -0.26654357 0.1467652 0.16945049 0.13270357 -0.09719927 0.011884563
-0.20072062 0.08194249 0.25066346 0.2928403 0.020194758 -0.18214287 -0.3079787 0.25171673
-0.078039385 0.21619113 -0.12364445 -0.08345338 -0.16762954 0.05741176 -0.059733 -0.2578501
-0.115477845 -0.10989528 0.078372665 -0.058280166 0.16534737 0.1564947 0.079936735 0.24626248
-0.009685712 -0.08381563 -0.15947323 -0.0949774 0.04669355 -0.14589918 -0.27250558 0.21063842
0.25536618 -0.21661726 0.06265368 0.28974298 0.2540048 -0.29703358 0.17305641 0.13881612
0.16615625 0.3103156 0.2657438 0.2271296 0.10181297 0.21017577 0.18197769 -0.07247567
-0.18382941 -0.041706752 0.08908411 0.15950887 -0.2077264 0.06641735 -0.26750797 0.18619543
00000000: 7a15 453e 2d17 e13d 6333 543e 7ab9 23be
00000010: 1633 46be eed0 50be 7566 cbbd 9a01 74bd
00000020: cb29 f63d cba0 9f3e b122 9bbe a449 bf39
00000030: bd1b c63c a083 49be 9cd1 823e 629c 973e
00000040: cecd 943e a75b 15be 18a2 c7bd 7203 8c3e
00000050: 7a75 503e 5f38 8c3b 3537 6c3e f3d0 db3d
00000060: 367f ee3c 4403 10bd 3a2f 74be f3b0 583d
00000070: 999f 9f3e 07d4 7b3e 5574 883d e764 04bd
00000080: 42c5 c0bd 51dc 42bd 81ff 933e 43d2 ac3d
00000090: 72ef 88bd 5f89 7c3e da42 4cbe ddae a7bd
000000a0: 5ec9 793d d497 a83d 0388 2c3d 2195 1ebe
000000b0: e72d ec3d 1f1f 0a3e 8331 663e 4405 87bb
000000c0: f896 55be 8f86 a83e 3709 843e 8f47 c5bd
000000d0: 52cd 153e 12fd 83bd 20a2 ad3e b511 8ebe
000000e0: 7f80 513c c29c 9a3d 29e3 f0bc bb5d cd3d
000000f0: de20 b43d 18d3 c1ba 748d 66be 338e 6e3e
00000100: af46 553e 2a06 893d 1fd9 bf3c 69ca 70be
00000110: d716 1b3e 1244 053e 61b4 4ebe aaf4 b33d
00000120: b271 2abd 3d7a 24bd a9cc 333e 0cb9 5cbe
00000130: 2364 a63e 7cc5 e03d 70ce 773e 21f7 36be
00000140: fc31 0e3d 7957 3cbe aed0 1e3e d152 93bd
00000150: 528b 783e 151b 49bd 9b69 48be 34d5 703e
00000160: 462d d43d 9144 ae3c 4d85 0c3e 9f82 05bd
00000170: c5c0 443e dc24 8ebd 3e11 84be ee94 94be
00000180: e052 623d a4e7 65bc 5f50 86bd 726e ccbd
00000190: 52bc cfbd 63c8 3dbe a225 6f3e c0e4 8cbe
000001a0: b6e9 58be 0c91 88be a86b 4ebc 64c1 7c3b
000001b0: 8648 0ebe 28ee 21be 6ec3 27be be85 433e
000001c0: e692 4ebe bfc9 9cbd 8321 8fbe ec0d 10be
000001d0: 6108 873e 83ca 623e 04f4 11be 41e4 3ebe
000001e0: c2ea d4bd 3177 edbd 2b26 86bd d923 aabc
000001f0: a302 8fbe 2c05 f03d 302a a93e c12b 3e3c
00000200: 3ccd 1cbe eedf 8fbe 4a84 843b 2157 15be
00000210: 745f f4bd 815b cebd 0b21 43be 537a 66be
00000220: d1f8 1a3d 2fd6 80be ffa8 5c3d 8a24 d23d
00000230: 83ce 72be 351a 9d3e cc31 173d a1fb 5f3e
00000240: d84f 753e d3fa 6f3e eef9 e83d b8db e9bd
00000250: 41b2 253e cc4a e1bd 4712 993d f0b8 47be
00000260: 7589 a6bd d6b9 b1bd 9173 953e ae03 d7bd
00000270: 397f 44be 4690 63bc e182 55bc ec05 723e
00000280: df11 67bd ca5c 523d d8bf a43d 0bc2 d5bd
00000290: ca06 d23d 9dc2 4a3d 4d60 273d a4ff ab3a
000002a0: a509 eb3d 376d 3b3e fadd 2dbe 5434 7ebe
000002b0: 7551 b23d d874 893e 1310 80be c334 a63d
000002c0: 4d8f a9be 2985 d7bd ae8f ae3e c2bc 543c
000002d0: 7eca 45be e78e 91bd 9217 953e b9e5 993b
000002e0: 7355 79be 09e6 9c3d 88cb 2a3e 0260 b2bd
000002f0: f71a f53c 2696 4c3e 2c6d 983e c174 743d
00000300: 1349 8f3e 04c5 733e 6678 88be 9e49 163e
00000310: 6e84 2d3e 72e3 073e 6910 c7bd 78b7 423c
00000320: b589 4dbe 77d1 a73d f656 803e 2aef 953e
00000330: 7a6f a53c a983 3abe 62af 9dbe 04e1 803e
00000340: 1dd3 9fbd 3561 5d3e 4d39 fdbd 9be9 aabd
00000350: 14a7 2bbe 9828 6b3d 97aa 74bd ee04 84be
00000360: a67f ecbd c710 e1bd d981 a03d 2fb7 6ebd
00000370: d250 293e 2640 203e dfb5 a33d 3b2c 7c3e
00000380: d2b0 1ebc 87a7 abbd f34c 23be 8383 c2bd
00000390: bc41 3f3d 9866 15be da85 8bbe 99b1 573e
000003a0: 5bbf 823e ead0 5dbe 9350 803d 3159 943e
000003b0: eb0c 823e c914 98be b335 313e d025 0e3e
000003c0: dd24 2a3e b0e1 9e3e 920f 883e a994 683e
000003d0: 5283 d03d 5138 573e 5c58 3a3e 206e 94bd
000003e0: c73d 3cbe b3d4 2abd bb71 b63d 4b56 233e
000003f0: 3bb6 54be d205 883d cef6 88be 04aa 3e3e

linear2.weight f4 [3, 256]
-0.04262379 0.0074641355 0.04418487 0.0050502135 -0.04052803 0.009597571 -0.05304591 0.006892242
-0.073954985 -0.06907155 0.024316756 0.0079961205 -0.06429673 -0.024304224 0.006777075 0.026576038
0.034604687 -0.02917599 -0.027317965 -0.046756383 -0.08116572 -0.030517824 -0.0095673045 0.029910244
-0.04354207 -0.06706779 0.02216797 -0.03516401 -0.03403072 -0.07888362 -0.010783061 0.010620311
-0.03401844 -0.070445694 -0.01404267 -0.029971436 -0.032993734 -0.01007696 -0.044403017 -0.029928127
-0.008662132 0.01728934 0.016766923 0.017281607 0.033864416 -0.10615527 -0.010533125 -0.024601301
-0.0018077168 -0.06326371 0.002197444 0.043723587 0.012649234 -0.01814022 -0.05552801 -0.0637293
0.025473896 0.004551518 -0.07723293 -0.03073667 0.021524943 -0.04156331 -0.003233212 0.0030012713
0.022397803 0.015301961 -0.027417416 0.04385039 -0.0042157145 -0.08036768 -0.0035555218 -0.017144827
-0.05220424 0.03538554 0.0010332242 0.029782087 -0.014247062 0.010202316 0.0006416657 0.044368517
0.04903896 0.039768144 -0.04112218 -0.056733664 -0.039332215 0.016848477 0.0010291934 -0.023158524
0.016181761 -0.082866296 -0.044998713 -0.08652915 -0.034086835 0.009412755 0.021475539 -0.046905275
0.018565457 -0.019287542 -0.00014622527 0.013046806 0.010501189 0.039118093 0.0046843495 0.056409344
0.029768247 -0.0005095479 -0.07748213 0.011427503 0.020770298 -0.00789521 -0.07553856 0.016925411
-0.051509023 -0.045626685 -0.03106293 0.040194422 -0.07581328 -0.016145743 -0.060132824 -0.028034708
-0.05963455 0.037629947 -0.05776372 -0.014278458 0.048247546 -0.06692864 -0.024239033 -0.07169463
-0.10234419 0.011692807 0.030867327 0.03705973 0.041182 -0.076217234 0.02809776 0.030334342
-0.0344925 0.019705605 -0.07744047 0.042689987 -0.012147802 0.027555125 -0.02563599 -0.024199542
-0.08571448 0.006798892 -0.05254015 0.0022466888 0.009571205 -0.053973194 0.007335444 -0.07221664
0.0444551 0.03438167 -0.064064935 -0.0741817 0.0027927873 -0.0110186925 0.043408174 -0.049181968
0.010954653 0.014399456 -0.010733521 0.009837083 0.0381064 -0.059457667 -0.047202006 -0.005213328
-0.057211686 -0.065739214 0.0206633 -0.06303736 0.040537506 0.040916476 0.036704004 0.02586233
-0.0045905425 -0.048590314 -0.051686954 0.026419178 0.051569358 0.0351853 -0.008653653 -0.032788124
-0.07035371 -0.07763007 -0.080105156 0.010129549 -0.0020139029 -0.0014676237 -0.06167045 -0.04519959
-0.0027437918 -0.05950046 -0.0109637715 -0.034534063 0.004755907 -0.042452715 0.035154548 -0.0009172412
0.0019591388 0.027994936 -0.053156395 -0.016044665 0.03850734 0.003406538 0.015678743 -0.045401774
0.017076552 -0.026591701 0.009976022 -0.0003463308 -0.003385328 0.036069628 -0.036052186 -0.008218629
-0.043645527 0.0676212 -0.024523767 -0.046885423 0.0139689185 -0.003776792 0.042308085 -0.0718053
-0.028260456 -0.061987143 0.014550688 0.040221255 -0.011084524 -0.040489256 0.023550333 -0.027517024
0.0075228964 0.059852645 0.04369395 -0.04100624 -0.008966951 -0.050114945 -0.0018237878 0.011920345
-0.053527724 -0.0497617 -0.063168675 0.029135598 -0.032234993 -0.037565492 -0.008804979 -0.021411624
-0.031125091 0.051591612 -0.0077807917 0.01783916 -0.018982403 -0.04293747 -0.051331222 0.030927693
00000000: 4996 2ebd b595 f43b 32fb 343d 437c a53b
00000010: b800 26bd 213f 1d3c ab46 59bd 51d8 e13b
00000020: b675 97bd 6375 8dbd ef33 c73c 2902 033c
00000030: 01ae 83bd a719 c7bc 3a12 de3b feb5 d93c
00000040: a5bd 0d3d 7c02 efbc edc9 dfbc 9f83 3fbd
00000050: 373a a6bd 8400 fabc 2fc0 1cbc 5406 f53c
00000060: 2b59 32bd d65a 89bd 9a99 b53c 2308 10bd
00000070: cc63 0bbd bc8d a1bd 70ab 30bc d000 2e3c
00000080: eb56 0bbd d545 90bd 3a13 66bc a886 f5bc
00000090: 7024 07bd d519 25bc f0df 35bd d52b f5bc
000000a0: 9deb 0dbc 60a2 8d3c c95a 893c 2892 8d3c
000000b0: 6ab5 0a3d ef67 d9bd 2193 2cbc ab88 c9bc
000000c0: e9f0 ecba 6790 81bd fe02 103b 8117 333d
000000d0: bc3e 4f3c cc9a 94bc 5771 63bd 8284 82bd
000000e0: a2ae d03c e624 953b 4c2c 9ebd 78cb fbbc
000000f0: 1455 b03c 4a3e 2abd 4ce4 53bb fab0 443b
00000100: 997b b73c 14b5 7a3c 7d9a e0bc 779c 333d
00000110: fa23 8abb cf97 a4bd c203 69bb 4f73 8cbc
00000120: 1dd4 55bd 6ef0 103d 406d 873a 90f9 f33c
00000130: 826c 69bc 9d27 273c 7535 283a c3bb 353d
00000140: 14dd 483d ece3 223d bb6f 28bd 8f61 68bd
00000150: d11a 21bd d105 8a3c 00e6 863a f2b6 bdbc
00000160: 9d8f 843c ceb5 a9bd 9250 38bd 3236 b1bd
00000170: a39e 0bbd f537 1a3c 78ed af3c bf1f 40bd
00000180: 9616 983c e800 9ebc 0c54 19b9 45c2 553c
00000190: 2e0d 2c3c 4b3a 203d 2c7f 993b 7c0d 673d
000001a0: 8adc f33c 2e93 05ba f3ae 9ebd 6c3a 3b3c
000001b0: 7926 aa3c e95a 01bc f6b3 9abd 29a7 8a3c
000001c0: 20fb 52bd 0ce3 3abd b077 febc e8a2 243d
000001d0: fe43 9bbd 1444 84bc d64d 76bd 0ba9 e5bc
000001e0: 5c43 74bd dc21 1a3d a799 6cbd 32f0 69bc
000001f0: 389f 453d e211 89bd f090 c6bc a2d4 92bd
00000200: d599 d1bd 3093 3f3c 7add fc3c f2cb 173d
00000210: 75ae 283d c817 9cbd 462d e63c ba7f f83c
00000220: 0248 0dbd a66d a13c 1c99 9ebd b2db 2e3d
00000230: 9307 47bc 49bb e13c 9102 d2bc 1e3e c6bc
00000240: 138b afbd 3dc9 de3b 5734 57bd 2f3d 133b
00000250: 8bd0 1c3c ff12 5dbd 2a5e f03b 51e6 93bd
00000260: 8d16 363d cbd3 0c3d 7a34 83bd 93ec 97bd
00000270: 3207 373b bf87 34bc c5cc 313d 0873 49bd
00000280: 257b 333c b2eb 6b3c a6db 2fbc b72b 213c
00000290: 7515 1c3d e289 73bd e456 41bd 91d4 aabb
000002a0: cd56 6abd 48a2 86bd 1546 a93c bb19 81bd
000002b0: a80a 263d 0998 273d f056 163d 3ddd d33c
000002c0: 436c 96bb a306 47bd b3b5 53bd 086d d83c
000002d0: 643a 533d 761e 103d 0dc8 0dbc d74c 06bd
000002e0: 9b15 90bd 84fc 9ebd 2c0e a4bd 68f6 253c
000002f0: affb 03bb 485d c0ba 279a 7cbd 3523 39bd
00000300: 30d1 33bb c1b6 73bd 64a1 33bc 9773 0dbd
00000310: 71d7 9b3b e6e2 2dbd 37fe 0f3d 0473 70ba
00000320: e564 003b a355 e53c 85ba 59bd 1a70 83bc
00000330: dfb9 1d3d 3940 5f3b b570 803c 36f7 39bd
00000340: 20e4 8b3c d7d6 d9bc 7872 233c bc93 b5b9
00000350: 61dc 5dbb bfbd 133d 75ab 13bd 6ea7 06bc
00000360: a7c5 32bd fc7c 8a3d 11e6 c8bc ee0a 40bd
00000370: e4dd 643c 0e84 77bb 3e4b 2d3d a80e 93bd
00000380: 7982 e7bc 3be6 7dbd 0266 6e3c 0bbf 243d
00000390: dd9b 35bc 10d8 25bd a1ec c03c 626b e1bc
000003a0: a182 f63b 0c28 753d 6df8 323d 29f6 27bd
000003b0: 1eea 12bc 5445 4dbd 2a0c efba 8d4d 433c
000003c0: e33f 5bbd edd2 4bbd 945e 81bd c7ad ee3c
000003d0: d708 04bd 46de 19bd c242 10bc 6e67 afbc
000003e0: 0cfa febc ba51 533d 03f6 febb 6e23 923c
000003f0: fc80 9bbc 33df 2fbd b040 52bd 135c fd3c

linear2.bias f4 [3]
-0.0047455993 -0.054286804 -0.029628193
00000000: f980 9bbb d75b 5ebd d3b6 f2bc
